app/src/main/assets/bnb-resources/flow/frx_prior.tflite (tflite, 768232 bytes, 144 tensors)

Conv1/Conv2D_bias f4 [4]
000000 38 f8 aa bd 9c 79 17 c0 c7 68 95 40 72 f9 d8 3f
       -0.08348125 -2.3667974 4.66904 1.6951125

Conv1/kernel f4 [4, 3, 3, 3]
000000 61 30 18 3c 81 3a 45 3a 83 32 65 3b dc 81 b4 3b
       0.009288878 0.00075236714 0.0034972734 0.0055086445
000010 0e f1 1a bb 21 22 b5 3a ee 71 06 bb 3d 14 ef 38
       -0.0023642215 0.0013819375 -0.0020514685 0.00011400178
000020 97 d8 9e b9 cb d2 dc 3b 9e 80 aa ba 3d c5 aa 3b
       -0.0003029748 0.0067389957 -0.0013008302 0.005211501
000030 81 99 a6 bb 00 52 1d ba 8d 6a a5 bb 21 88 18 bc
       -0.005084217 -0.00060012937 -0.0050481022 -0.009309799
000040 5e db 42 3b 7f 08 fb ba b4 fa b0 3a 13 09 6b 3b
       0.0029732804 -0.0019152312 0.001350245 0.0035863563
000050 88 d0 11 bb af 8d c1 bb b7 c0 3c bb 71 44 9e ba
       -0.0022249538 -0.0059067826 -0.002880139 -0.001207484
000060 8e 72 c1 b9 cc 8b 87 3b 1b cf 1e 3b cb f0 1b 3b
       -0.00036897179 0.004136538 0.0024232331 0.0023794647
000070 79 a8 71 ba 5a fb ef 3a a0 80 db ba b4 c0 55 3a
       -0.0009218525 0.0018309162 -0.0016746707 0.000815402
000080 53 03 83 3a 9d 0f f8 ba 07 7e 84 3a 6d 1e 49 3a
       0.0009995498 -0.0018925552 0.001010836 0.00076720753
000090 af 01 b1 3b 47 df a3 39 01 8b 3b 3b ce a3 34 3b
       0.005401812 0.00031256137 0.0028616788 0.0027563456
0000a0 f3 4e c6 3a fb b4 24 3b a5 cb f4 ba ba ff c3 ba
       0.001512973 0.0025132287 -0.0018676413 -0.0014953532
0000b0 ab a8 85 3a ab af d8 3a 89 53 d3 ba 2c 63 75 b8
       0.0010197362 0.0016531845 -0.0016122918 -5.8504913e-05
0000c0 cf 51 87 3b 69 7d b5 39 ef 95 43 39 df 0d a2 3a
       0.0041296254 0.00034616448 0.00018652504 0.0012363753
0000d0 c4 5e 78 39 a6 b8 26 ba 60 f5 42 ba e3 15 82 39
       0.00023686426 -0.0006359912 -0.00074370764 0.0002481184
0000e0 33 75 43 bb 74 cb dc ba 70 2a 39 3a 76 9b 8c bb
       -0.0029824495 -0.0016845302 0.00070635136 -0.0042909933
0000f0 4c fb 45 3b e9 ff f7 ba 5d c3 31 bb 21 3c 0f 39
       0.00302096 -0.0018920872 -0.0027124502 0.00013659942
000100 dd 89 3b 3a 6d 84 28 bb c4 46 71 bb 4f 06 4d ba
       0.0007154027 -0.0025713698 -0.0036815861 -0.00078210694
000110 29 3e fc bb 5c 9b b7 39 70 f8 e4 ba 73 c0 29 bb
       -0.0076978398 0.00035020232 -0.001746906 -0.0025902062
000120 d9 b3 67 3b 68 50 a3 3a 71 d3 35 3b 5c 5d 96 39
       0.0035355 0.0012459876 0.0027744437 0.00028679788
000130 8d 9f 9a ba 6f ef de ba a9 b3 b5 ba 91 9e 16 bb
       -0.0011796817 -0.0017008613 -0.0013862747 -0.0022982697
000140 0c 69 3d bb fb 42 91 b9 4a 5a a8 39 bc 54 e7 ba
       -0.0028901724 -0.0002770646 0.00032110728 -0.0017649154
000150 b1 8b 6f bb ad c8 58 39 70 00 ef ba 80 ae 0f bb
       -0.0036551768 0.00020674123 -0.0018234383 -0.0021924078
000160 13 01 1d 3a 69 7d 0b ba 30 47 b7 ba 1b 35 d7 b9
       0.0005989235 -0.0005321117 -0.0013983008 -0.00041047562
000170 ff b6 dc ba 51 c3 88 bb 04 af 65 ba 01 81 39 ba
       -0.0016839205 -0.004173674 -0.0008761736 -0.0007076413
000180 8c e4 a1 b9 94 5e 4d 3a 12 09 04 3a 9a f8 14 3a
       -0.00030878594 0.00078342226 0.0005036752 0.00056827965
000190 45 97 25 b9 e2 2c fb 38 6a 98 b5 39 02 bd e6 39
       -0.00015791979 0.00011976973 0.00034636568 0.0004400984
0001a0 77 e7 de ba 03 85 a8 3a 1f 62 cc b8 d2 9b 5b b9
       -0.0017006238 0.0012857023 -9.7457545e-05 -0.00020943515

Conv1_prelu/Neg_neg f4 [1, 1, 4]
000000 6e a6 fa 3e 2f 79 a3 3f 3c 96 5a be e7 6a 1a 3f
       0.489551 1.2771357 -0.21346372 0.6031937

angles/MatMul_bias f4 [2]
000000 f7 f7 5b 3e 7f fa b2 bb
       0.2148131 -0.0054619904

angles/kernel/transpose f4 [2, 1920]
000000 85 c7 a9 bb 8c 3d 76 ba 5a 0e 49 3c 8c f7 5b bc
       -0.0051812553 -0.00093933265 0.012271488 -0.013425719
000010 f6 03 8b bc b4 db c9 3c ea 50 3c 3b 5c 0f e8 3b
       -0.016969662 0.024640895 0.0028734752 0.007081909
000020 ff bb ca 3b 0c e6 d4 bb c9 60 55 bb 74 39 93 bb
       0.0061869617 -0.0064971503 -0.003255891 -0.004492933
000030 79 79 53 3d b6 a8 e8 3c e2 b3 9c 3b 69 99 9f 3b
       0.051629517 0.02840076 0.004782186 0.004870583
000040 a0 7f 83 3c 59 af 9a bc 26 ea 59 3d 32 a8 06 be
       0.016052067 -0.01888244 0.053201817 -0.13150099
000050 e3 b4 c8 bb 72 d7 c8 3b be a9 c9 3c 8f 67 55 3d
       -0.006125079 0.0061291987 0.024617072 0.052100714
000060 e9 04 5a bc 97 df 0a bc 51 ed db 3c a2 b6 86 bc
       -0.013306835 -0.00847616 0.02684656 -0.016444508
000070 62 7d 3b 3d 1d 0b 07 3c ec 67 27 bc 13 e5 2f 3b
       0.04577387 0.008242396 -0.010217648 0.002683942
000080 95 a8 32 bc 4f 97 10 3c 27 22 2a 3c 56 e9 38 bc
       -0.010904451 0.008825137 0.010384119 -0.0112861
000090 92 40 92 3b 4a 2d cb bb 72 e1 fb 39 29 34 1e bc
       0.004463264 -0.0062004672 0.0004804242 -0.009655991
0000a0 7a 97 4a 3c 55 f1 4e 3d 6a be aa 3b 8e 27 de bb
       0.012365216 0.05052312 0.0052106874 -0.0067796176
0000b0 5a cc 15 3b 32 d8 06 bd 34 dd 65 3b d7 7a b3 3c
       0.0022857399 -0.032921024 0.0035074474 0.02190916
0000c0 32 18 b8 3d d9 74 3e bc 96 41 11 ba ba 76 aa 3c
       0.0898899 -0.011624538 -0.0005541084 0.020808566
0000d0 2b 59 f0 3c e0 ec 5e bb 44 a9 54 b9 2c 08 f4 bb
       0.029339394 -0.00340157 -0.00020280952 -0.007447263
0000e0 a8 74 05 3d f7 b2 90 ba c2 d5 a2 bc d9 fb 54 bd
       0.032581955 -0.0011039664 -0.019877318 -0.051997993
0000f0 e2 cd 3b bc 3d df 53 3d 30 20 12 3c fd 53 44 3b
       -0.0114626605 0.05172657 0.008918807 0.0029957287
000100 6f ac af b9 31 84 88 bd b6 fd 0d bc 10 ed ec 3b
       -0.00033507074 -0.066658385 -0.008666446 0.0072304085
000110 fa 5a 08 3c a5 5a 48 3a 8e 52 f7 bd 04 1b 6e 3b
       0.008322472 0.00076429016 -0.12076293 0.003633202
000120 f7 4a e4 bc 53 fb 8c bc bd b2 f5 bc f8 d7 24 3b
       -0.027867777 -0.017209684 -0.029992456 0.0025153141
000130 a6 99 12 3b f8 90 92 3b 46 bb dc bc cf 74 19 3c
       0.0022369414 0.004472848 -0.026944768 0.009366228
000140 48 44 ce 3b 3e eb 75 3b 13 9e 37 3c c8 8e e6 3c
       0.006294761 0.0037524248 0.011207121 0.028144255
000150 38 de 3c bc aa 29 fe 3a 1f 8a 15 be b4 c3 d8 ba
       -0.01152759 0.0019391079 -0.1460347 -0.0016537816
000160 6f 4f ba 3b 8e ab fd 3a f2 86 73 bd c3 8a 01 3d
       0.0056857388 0.0019353495 -0.059454866 0.031626474
000170 5f c1 d6 bb 17 fd 10 bd 17 df 64 3b fa 1a b5 bc
       -0.0065538133 -0.035397615 0.003492301 -0.02210759
000180 54 32 a2 3c 13 8d 37 3c e3 f2 00 3b 0e d6 4a 3a
       0.019799389 0.011203068 0.0019676022 0.0007737585
000190 31 12 3c 3d 45 9f 7d 3b cf 07 44 3c 85 58 72 3d
       0.045915786 0.0038699668 0.011964752 0.05916645
0001a0 0d 82 5f bd db a2 e1 bb 37 ef a1 bc 30 b4 c5 3b
       -0.054567385 -0.006885869 -0.019767387 0.006033443
0001b0 cf f7 36 bb 5f 6a f0 bc 73 57 8c 3a ea cb e7 bc
       -0.0027918702 -0.029347597 0.0010707214 -0.028295476
0001c0 a3 b8 07 3d 8c fa 97 3b b2 0c 95 bb 75 f2 fb 3c
       0.033135068 0.004638022 -0.0045486325 0.030755261
0001d0 c4 7a 24 3c d4 1f da 3c 0b 08 23 bc 6e f8 e3 3a
       0.010039035 0.026626505 -0.009950648 0.0017392763
0001e0 12 c0 07 3c 7d e0 e6 bd d6 e6 5d 3d 5d 11 f9 bb
       0.008285539 -0.112732865 0.05417522 -0.007600947
0001f0 95 88 ee bd f7 2d 0a bd d5 aa ae 3c c4 7f 08 be
       -0.11647145 -0.03373524 0.021321693 -0.13329989
000200 e9 79 f4 bd dd 8f a7 bd d0 59 1b 3d a5 5b cd bc
       -0.11937315 -0.081817366 0.03792745 -0.025068114
000210 33 09 1d 3d e7 b6 2f 3d 5c 0c 47 3d de b4 49 3d
       0.03833885 0.04289904 0.04859577 0.049244754
000220 be eb db 3c 77 7b 73 bc 9d 3a af bd ca 28 25 3e
       0.02684581 -0.014860979 -0.085561015 0.16128841
000230 e1 c3 23 bd d8 fd 78 bd 47 ea 4f bd 3e b3 9e bd
       -0.039981727 -0.06078896 -0.050760534 -0.077490315
000240 c2 eb cd 3b e5 f6 05 bd e2 c9 2e be 8a d2 c9 3b
       0.006284208 -0.03270616 -0.170692 0.0061591314
000250 c6 c2 01 be f5 c6 1f 3b c2 f3 8c bc 13 4d b4 3b
       -0.12671956 0.0024380062 -0.017206077 0.005502352
000260 51 b3 44 3e e8 24 6b bc 6b 5f bf 3c 7e 34 97 bd
       0.19209029 -0.014352061 0.023360929 -0.07383059
000270 15 73 89 bd e2 07 9d 3d 6a 38 3f 3d 5c 6c 4c 3d
       -0.06711403 0.07667519 0.04668466 0.049908027
000280 60 28 13 bc 55 36 98 3b a2 9b d5 3b 72 b7 12 3d
       -0.008981794 0.0046451488 0.006518797 0.03581948
000290 ee 4a d4 3d 75 16 c0 3d c9 c8 da 3c 8f cf ae bd
       0.10365854 0.09379283 0.02670707 -0.085356824
0002a0 ea 7c 02 be 16 2e 96 3d 5e 1b 83 bc bf 41 22 3e
       -0.12742963 0.07333009 -0.01600426 0.15845393
0002b0 17 1e fc bc d4 24 ef 3c 52 9d 9a 3b 79 a5 94 bd
       -0.030776067 0.029192366 0.004718461 -0.07258124
0002c0 d8 0a a1 3d 80 db f5 3c 50 5e bc bc b8 39 01 be
       0.078633964 0.030011892 -0.02299419 -0.12619674
0002d0 35 90 2e bd 48 9d 08 3e e5 61 22 3c bd 76 fe 3d
       -0.042617995 0.13341248 0.009911035 0.12424991
0002e0 8d 89 08 bc 2a 73 64 3e 02 0d a5 bd 99 7c 6e 3b
       -0.008333576 0.22309557 -0.08059122 0.0036390184
0002f0 ec 7c 12 3b c1 e3 0a bc f4 8d c1 3b f5 2a 96 bc
       0.0022352291 -0.008477152 0.0059068147 -0.01833103
000300 fe 6e b9 3d 15 e3 14 be e6 f6 a1 bc 22 29 9a 3c
       0.09054373 -0.1453975 -0.01977105 0.018818442
000310 19 e1 c2 3b 73 f9 6e 3d bc b6 c8 bd a3 08 d8 3d
       0.005947244 0.058343362 -0.09800479 0.10548522
000320 39 3d 6b 3d 40 3d 8a 3c f3 4e b4 3d 23 7a 2c be
       0.057431433 0.01687491 0.08804121 -0.16843466
000330 2a f1 60 3d 74 94 a9 3d 86 e5 eb 3d 45 22 54 3c
       0.054917492 0.08280268 0.115183875 0.012947624
000340 7f 0b 3a 3c d1 c4 ed bd 60 19 c2 3d d9 a7 a0 3c
       0.01135528 -0.116098054 0.09477496 0.019611286
000350 33 bf a2 bc 9d 28 05 bd 6c db e6 3b 29 4c b4 bd
       -0.019866562 -0.032509435 0.0070452 -0.08803589
000360 fe 2d 5a 3d 6b 97 25 3d 99 c6 03 bd 3e ad b5 bc
       0.053266518 0.040427607 -0.03217182 -0.022177335
000370 0c a8 05 bd ce d5 1e 3e 32 65 86 bd f6 c8 a8 ba
       -0.032630965 0.15511248 -0.0656227 -0.0012877274
000380 44 7e e0 bd f6 90 da 3d 5c 83 84 3e 72 43 39 bd
       -0.10961583 0.1067218 0.2588147 -0.045230336
000390 2e b6 da 3d 6f ee 19 bd 10 01 10 3d 5e 87 aa 3d
       0.10679279 -0.037580904 0.035157263 0.083266005
0003a0 e6 52 0d bd 20 f6 12 bd ae dc 37 3d 4f 19 0f bd
       -0.034502886 -0.035879254 0.04488819 -0.034936246
0003b0 5d 6a cf bd 4c 1e 45 bd 68 50 88 3d 4b 7e b5 be
       -0.10127709 -0.048124596 0.06655961 -0.35447916
0003c0 99 6e 9c bd e3 02 f4 bd de b2 7a bd cf 84 06 3e
       -0.07638282 -0.11914613 -0.061205737 0.131366
0003d0 76 5b 64 bd 1f 71 a7 bd 5d 3a aa bd bc bc 6b bc
       -0.055751286 -0.08175873 -0.08311913 -0.0143882595
0003e0 ea a2 3c 3d a3 72 15 3d a1 2a ef bd 53 c8 9a bc
       0.046053804 0.03648628 -0.11678053 -0.01889435
0003f0 df f6 6e 3b 23 a2 02 3e 77 93 ac bc a3 24 09 3d
       0.0036463065 0.12757163 -0.02106641 0.033482205

block_10_depthwise/depthwise_bias f4 [48]
000000 e0 99 3c bf 14 79 a3 3d 6a 48 f7 3e 10 e5 19 3d
       -0.73672295 0.07982078 0.48297435 0.037571967
000010 28 05 77 3f da e8 8f 3e 51 c7 cc 3f 33 02 02 3f
       0.9649224 0.2810734 1.5998327 0.50784606
000020 66 75 37 3e 00 ca b8 3e f8 07 d5 3d 02 cb 04 bf
       0.17915878 0.36091614 0.104019105 -0.51872265
000030 b6 d3 bc be 9a 63 60 be c3 dc fc 3e ec a1 17 be
       -0.36880273 -0.21912995 0.49387178 -0.14807862
000040 e4 e4 28 3d b8 55 ad bf ef 94 3c 3f 00 42 28 ba
       0.041233912 -1.3541784 0.73664755 -0.0006418526
000050 c6 55 eb 3e 9c 47 85 3e d0 e5 b5 3d c0 95 87 3e
       0.45963877 0.26031196 0.08881724 0.26481438
000060 52 68 24 3f 5b b4 e6 3e 7c e4 b4 3e 85 14 e6 3f
       0.6422168 0.45059475 0.3533057 1.7975012
000070 78 7c 2f bd 69 bf 95 3e c8 f1 eb 3d 19 7d 88 bf
       -0.042843312 0.29247597 0.115207255 -1.0663177
000080 a7 8e 03 bf 2a b6 11 40 cf 8e 83 be f5 75 7d 3f
       -0.51389545 2.2767434 -0.25694892 0.99008113
000090 2c b3 01 3f 75 56 94 3f 3d 30 83 3f 0f c5 b7 3f
       0.5066402 1.1588885 1.0249096 1.4357013
0000a0 11 e4 96 3f c8 e4 92 3e e6 f4 65 3e 0e 81 97 3e
       1.178835 0.2869017 0.22456703 0.29590648
0000b0 e1 94 4d 3f 08 62 5d be 9f ed 02 3f 56 d0 6e 3e
       0.80305296 -0.21619427 0.5114383 0.23321661

block_10_depthwise/depthwise_kernel f4 [1, 3, 3, 48]
000000 b4 56 42 bf 1d d9 93 3f 90 0b bd be 8b f4 82 be
       -0.7591355 1.1550633 -0.36922884 -0.25577196
000010 26 b4 90 be b7 7f 5c bf 16 73 17 bf d4 f1 34 3f
       -0.28262442 -0.8613238 -0.5915998 0.706815
000020 74 65 65 be 6c 92 4e 3d 42 12 05 bf 8f 57 d1 3e
       -0.22401983 0.050432608 -0.51980984 0.40887114
000030 34 97 2a 3e 5d 1e 3a 3e c5 fe 19 3e 7d 7b 36 bf
       0.16659242 0.18175645 0.15038593 -0.7128218
000040 0e 89 09 be e1 9a 64 bd 81 0b 20 bf 14 bd a0 3e
       -0.13431188 -0.055811767 -0.62517554 0.31394255
000050 14 e2 aa be 2f f3 9a 3e 52 7b 67 bf 7d 1a 38 bf
       -0.3337561 0.3026366 -0.90422547 -0.7191542
000060 f2 14 45 3f 7e 8a 34 be 93 d3 f4 bc 6a 19 89 be
       0.76985085 -0.17630956 -0.029886043 -0.26777202
000070 b3 00 56 3f 07 0d 9c 3c 30 3a 0c 3e de 37 c0 bd
       0.83594817 0.01904918 0.13694072 -0.09385656
000080 f9 4a a7 3e 2e 49 f9 be 9d f7 21 3f 61 13 d9 be
       0.32674387 -0.48688644 0.6326845 -0.42397597
000090 8a 32 ed be d0 44 85 3e ea a4 4e be ab 33 37 be
       -0.4632762 0.26029062 -0.20180097 -0.17890804
0000a0 30 40 f5 bd fc 8c 49 bc 88 17 0f 3e 42 11 52 bf
       -0.119751334 -0.01230168 0.1397382 -0.82057583
0000b0 4a ad 80 bc 22 6b 85 bc 12 c2 84 be a1 14 ab bc
       -0.01570763 -0.016286436 -0.25929314 -0.02088386
0000c0 fc 73 4d bf 0b d4 00 3f 1a 40 6b be fc cf 0b 3e
       -0.80255103 0.5032355 -0.22973672 0.13653558
0000d0 3c 68 a4 be a5 31 ff be 01 82 9f bf 90 ac 8b bd
       -0.32110775 -0.49842563 -1.2461549 -0.06820023
0000e0 bf 88 65 3e bf 5b 96 bc a5 3c a1 3e ac 1d a9 be
       0.22415446 -0.018354295 0.3149158 -0.3303045
0000f0 b8 97 a9 3d 38 fe 1b bf ae 70 03 bf 68 61 95 3f
       0.08280891 -0.6093478 -0.5134381 1.1670351
000100 fc 89 99 3e eb 11 cd 3f ab 77 43 bf 37 fa b2 3e
       0.29988086 1.6021093 -0.76354474 0.34956524
000110 52 5c a5 be 52 83 93 3d 39 7f 14 bf c3 cf 9c be
       -0.32296997 0.07202782 -0.58006626 -0.3062726
000120 01 30 4f 3e ac ae cf 3e c9 8b 0e bf 11 2a 8c be
       0.20233156 0.40562952 -0.55682045 -0.27375844
000130 18 c7 81 be de 5a 75 3f 39 5d 54 3e fd 6b 2c 3e
       -0.2534721 0.9584178 0.20738687 0.1683807
000140 e2 98 dd be a2 b7 c0 bf d8 4f 58 3f f3 5f 2f bf
       -0.43280703 -1.505604 0.8449683 -0.6850578
000150 68 87 bc 3d 28 84 28 be 7f b7 9c 3e 85 5e b4 bc
       0.09205514 -0.16456664 0.30608746 -0.022017727
000160 94 f6 4d bf 42 e8 bb be 9b 8f 8b be 18 7f 52 be
       -0.80454373 -0.36700636 -0.27258 -0.20556295
000170 2e 37 5c be 4e 47 88 3e 8d 63 a7 be 5b dd a9 be
       -0.21505424 0.266169 -0.3269314 -0.33176693
000180 e7 8c 06 bf 0d 6f aa 3d ce 50 d4 3d 28 42 fe 3e
       -0.5255875 0.083219625 0.10366975 0.49659848
000190 89 8f ef bd e6 6b 16 3e 53 6d 25 bf cc 4f 25 bf
       -0.11697299 0.14689597 -0.6461994 -0.64574885
0001a0 e7 74 ee be 5e 76 7d bc a8 55 87 be 1d d5 63 be
       -0.46573564 -0.0154701155 -0.26432538 -0.22249265
0001b0 e1 c4 a4 be 31 a9 41 3e ba 91 ef 3e 5d ae 54 3e
       -0.32181457 0.18912198 0.46790868 0.2076964
0001c0 07 42 d2 bd 37 48 cd bd 73 83 fe 3a 95 8a 0b bf
       -0.102665 -0.100235395 0.0019417837 -0.54508334
0001d0 b6 35 90 be 34 39 9c be d2 98 f8 be b0 6d 7f 3c
       -0.28165978 -0.30512393 -0.48554093 0.015590116
0001e0 5e dd 6b be 44 fc 93 3e 8f bd ef 3d 71 7d f7 be
       -0.23033664 0.289034 0.11706077 -0.48337892
0001f0 c1 8f 88 be 2b 7d 0f bc 0c cd 7c be 8b b7 3a 3f
       -0.26672176 -0.00875787 -0.24687594 0.72936314
000200 fd 6b ba 3d 68 de b2 bf ad c0 d7 bd af 2a f5 be
       0.091026284 -1.3974123 -0.10534797 -0.47884127
000210 0e cd f2 be b0 42 1b bf 16 81 84 3e c2 5f e5 3b
       -0.4742207 -0.6064863 0.25879735 0.0069999406
000220 1a 3f 15 bf 18 ce 63 be 4b ec 05 be 16 f4 19 3e
       -0.5829941 -0.22246587 -0.1307842 0.15034518
000230 ec 7a dd bc c5 b1 b2 3e d8 f4 bc 3d c6 6e 83 3e
       -0.027036153 0.34901252 0.09226388 0.2567045
000240 6d 9f d3 3f da 13 be be 61 33 f0 bd cf 90 a0 be
       1.6533028 -0.3712452 -0.1172855 -0.3136048
000250 9b be 30 bf 05 2d 39 bb 06 2f 51 bf f0 42 9f 3e
       -0.6904084 -0.0028255593 -0.8171238 0.31105757
000260 1e 15 d9 be 62 44 1a 3f 6a 85 09 bf ba 0e c0 3e
       -0.42398924 0.60260594 -0.537192 0.37511235
000270 49 c7 08 3d df 31 89 3c 87 3e a2 bd b3 9e a5 be
       0.033393178 0.016747413 -0.079220824 -0.3234764
000280 b5 ab 27 bf fa 91 fc be bd 25 b7 3c 96 2d 64 be
       -0.6549638 -0.4933012 0.022356862 -0.22283015
000290 de 22 dd bb 69 1d 69 3c 10 66 04 3f 31 88 3f 3f
       -0.0067485413 0.014228203 0.51718235 0.74817187
0002a0 9b 4d 67 3f 78 a5 bf be 28 ba c6 bd 16 07 e3 be
       0.9035279 -0.3743093 -0.09703475 -0.44341344
0002b0 ae 64 0d 3f 8a 0d 0d 3d 15 60 47 3e 4b 71 ee 3d
       0.5523175 0.03443674 0.19470246 0.11642703
0002c0 d8 b8 87 be 59 76 f5 be ca a2 42 3e af e4 1b 3e
       -0.26508212 -0.47941855 0.19007412 0.15223955
0002d0 7d 19 e6 bc df 6c a2 be 96 f7 02 bf 9d 33 9a bf
       -0.028088326 -0.31723687 -0.51159036 -1.2047001
0002e0 e9 2e fe bd d9 01 0c 3e 5c a7 9e 3e ca c6 7d 3e
       -0.12411291 0.1367258 0.3098706 0.24782863
0002f0 f1 21 cb be da c3 f7 3e 21 a2 01 bf e7 83 23 3e
       -0.39674333 0.4839161 -0.50638014 0.15968286
000300 03 95 69 3e 00 df e7 be c5 1f 8d 3f 48 26 f8 3e
       0.2281075 -0.45287323 1.102532 0.48466706
000310 eb db fa bd 83 2c 02 be 99 49 c6 3e 4a b8 8d be
       -0.12248977 -0.12712292 0.38728026 -0.27679664
000320 0e e7 64 bc 5e 44 01 3e 25 28 fd 3d 1b ca 67 3e
       -0.013971103 0.12623736 0.123611726 0.22635691
000330 fa cb eb 3e c1 75 8a 3e a0 bb cd 3a 07 fa 02 3f
       0.4605406 0.27042964 0.0015696175 0.5116276
000340 11 b6 29 be f7 35 76 3f 35 2d 15 be 2e e9 e4 3c
       -0.16573359 0.96176094 -0.14568026 0.02794322
000350 6b cd 3b be 1e 50 f6 3e bc b4 dc 3e 74 de 55 3e
       -0.1834008 0.48108 0.4310664 0.2088564
000360 94 de 7c bc aa 76 e2 3b 16 a1 34 bf 82 e5 35 bf
       -0.015433926 0.0069111185 -0.705583 -0.71053326
000370 89 e6 f0 3e 60 e6 61 3c a7 2b 0b 3f e2 b1 d2 3d
       0.47050884 0.013787836 0.54363483 0.10287835
000380 92 b6 84 3d c7 3e 9c 3e 6c 71 c7 bd eb 84 7a be
       0.06480135 0.30516645 -0.097384304 -0.24464767
000390 8d 7e 17 bd 75 fb 5a be 63 b6 a0 3e ed e0 03 bf
       -0.036985923 -0.21384986 0.3138915 -0.51515085
0003a0 5d 48 4b bf ae 60 94 bd 6e b5 84 be 84 96 d7 bc
       -0.7940729 -0.07245003 -0.2591967 -0.026316889
0003b0 e8 05 86 be 29 0f 39 3f 26 e9 73 3e e9 97 b5 be
       -0.2617638 0.7228876 0.23819408 -0.3546746
0003c0 71 63 0b 3f c9 a2 eb bd bd af 2e 3e 6c aa c5 3e
       0.5444861 -0.11505658 0.17059226 0.38606584
0003d0 28 d1 ac be e1 6b 30 3f 30 28 56 3f 0d 7c c9 3d
       -0.33753324 0.6891461 0.8365507 0.09838114
0003e0 a6 e1 b9 bd 0e 18 e3 3d 5e 47 d8 3e 90 d7 2e bd
       -0.09076242 0.110885724 0.4224195 -0.042686045
0003f0 fd 70 ab be bf 7f 6e be a6 1f 0e 3f 2f 3b f5 3d
       -0.3348464 -0.23290919 0.5551704 0.11974179

block_10_depthwise_prelu/Neg_neg f4 [1, 1, 48]
000000 e2 03 ab 3e 14 c5 b4 3e 66 e6 1c 3f bb df 17 be
       0.334014 0.3530661 0.6128906 -0.1483144
000010 0b 8d 71 3f bb 2d ed 3e 88 6b 6f 3d 65 26 80 3e
       0.9435584 0.46323952 0.05845216 0.25029293
000020 04 8f 38 3d ba 66 c2 3e 72 36 8b be 4f 1c f3 3e
       0.045058265 0.37969 -0.27189976 0.47482535
000030 92 f4 4f be 77 9b af bd f6 12 f4 3e ee bf 2c 3f
       -0.2030814 -0.085745744 0.47670716 0.6748036
000040 50 72 0d 3f 7b ae 80 3e d3 5e 4c 3f 6a d7 14 3f
       0.5525255 0.25133118 0.7983219 0.58141196
000050 e3 02 c9 3e 68 31 cc 3e 14 5a fc 3d 6d bf c3 3e
       0.39260015 0.39881444 0.123218685 0.38231984
000060 02 e7 41 3f f7 bd a0 3e e9 d5 19 3f 94 e3 8b 3e
       0.75743115 0.31394932 0.60092026 0.27322066
000070 74 62 d7 3e fd 69 51 3f 1b 88 82 3e 26 39 9c 3e
       0.420673 0.8180235 0.25494465 0.3051235
000080 a2 e1 cf 3e 1e 6d a4 3e 8f 15 08 3e 53 a5 62 be
       0.40601832 0.321145 0.13289474 -0.22133379
000090 69 2a 3e 3f 43 20 9a bd e6 e7 87 3e 27 5b 95 be
       0.7428346 -0.07525685 0.26544112 -0.29171106
0000a0 68 5f 2a 3f 70 68 6e 3e 27 59 69 3e 58 c8 eb 3d
       0.6655183 0.23282027 0.22787915 0.11512822
0000b0 dd c3 79 3d 03 62 e0 bd e8 f0 07 3f 28 c9 43 3e
       0.060977805 -0.10956194 0.5310197 0.19119704

block_10_expand/Conv2D_bias f4 [48]
000000 9e 15 41 3f cc f6 51 be 8a ef b9 3e 1e 5d 49 3e
       0.7542361 -0.20504302 0.36315566 0.19664428
000010 d1 2c 0e 3e 46 e5 07 3e cc ce 1d 3f 46 51 09 be
       0.13884284 0.13271055 0.6164367 -0.1340991
000020 a6 19 11 3e 3e 1c b8 3d 42 16 03 bd 0d 15 c7 3e
       0.1416994 0.08989762 -0.03200365 0.38883248
000030 c0 55 ee bc 57 7b 2c 3e 40 81 53 3e ba a6 a4 3e
       -0.029093623 0.16843925 0.20654774 0.32158452
000040 c3 87 c0 3e 0e 2e 1c 3f 3a 46 b5 3e b6 a3 15 3f
       0.37603578 0.61007774 0.3540514 0.5845293
000050 0f 81 2c 3e 1b c3 2c be 73 a2 ca 3e 07 92 9f 3e
       0.16846107 -0.16871302 0.39577064 0.31166098
000060 50 c2 2a 3f dc 51 1f 3e f3 7b 84 3e c9 f2 da 3e
       0.6670275 0.1555857 0.25875816 0.42763355
000070 a0 40 94 3e b2 c3 2d 3e 42 3c ff 3d 2a ad 6e be
       0.28955555 0.16969183 0.12462665 -0.23308244
000080 4c 21 77 3e 53 16 43 3f d2 b2 5d 3d 42 00 d0 3e
       0.24133795 0.7620594 0.054125614 0.40625197
000090 10 37 4e 3e c0 0c 80 3e 04 4a 22 3e 46 c1 ca 3e
       0.20138192 0.25009727 0.15848547 0.3960058
0000a0 33 e5 af 3e 23 ad c5 3e b9 f1 b6 3d cf 14 c0 3d
       0.34354553 0.38608655 0.08932824 0.09378969
0000b0 db 00 ae 3d 7d 92 01 be 2a 69 80 3e 0c e2 b1 3e
       0.08496257 -0.12653537 0.25080234 0.34742773

block_10_expand/kernel f4 [48, 1, 1, 8]
000000 32 a8 a7 3d c2 2f 7c bc 90 9d d6 bc 46 8f 32 3d
       0.081863776 -0.015392246 -0.026198179 0.043593667
000010 ce 63 43 ba 5b d8 e3 bd f2 cb 22 3d 06 24 d3 bd
       -0.0007453532 -0.11125251 0.03974528 -0.10309605
000020 ff 96 ad bc c5 dd 9f 3d 79 83 fe bd 5e 69 b4 3d
       -0.021190165 0.07805971 -0.1242742 0.0880916
000030 3a c1 cc bd ca 24 26 3d 93 c9 a6 be 5a 74 14 3e
       -0.099977925 0.04056243 -0.32575664 0.1449751
000040 65 29 0a be 67 ff d9 be 7f 83 05 3e 1a ad e3 3c
       -0.13492353 -0.4257767 0.13038443 0.027792502
000050 86 11 d7 3d e9 ac 6b 3e 1b 18 50 be b4 b0 c7 bc
       0.10501389 0.23015179 -0.20321696 -0.02437625
000060 36 36 16 bd 76 d2 b2 3e 7f c0 51 bd e5 be 87 3d
       -0.036672793 0.34926194 -0.05120897 0.06628207
000070 4e ef 4d bc ff 43 45 3d eb 00 a4 bd 8c f3 38 3e
       -0.012569262 0.04816055 -0.080079876 0.18061656
000080 da f6 91 3e f2 49 db 3d f3 cd f6 bd fa 80 8a 3e
       0.28508645 0.10707463 -0.120510004 0.27051526
000090 31 cd 29 be 82 cd 92 3e 39 6a 11 3d de 1b fb 3c
       -0.1658218 0.28672415 0.035501692 0.030652937
0000a0 68 ac 52 bd 6d 80 80 3d 65 49 bf bd 93 8d 6a 3e
       -0.05143395 0.06274495 -0.09340171 0.22905569
0000b0 41 63 ce 3d 88 ef 08 be e8 54 e2 bd 45 20 51 be
       0.10077525 -0.13372624 -0.11051351 -0.20422466
0000c0 50 88 2f bd 89 ab 02 3e fe 06 88 bd c0 ef 76 bd
       -0.042854607 0.12760748 -0.06641959 -0.060287237
0000d0 fe 8f d9 bc d1 c6 ec 3b 07 5c ee bc fa d8 31 bd
       -0.026557919 0.007225849 -0.029096616 -0.043419816
0000e0 82 52 26 bd 89 73 22 be 0a bd 58 bd a5 bc 27 3d
       -0.04060603 -0.15864386 -0.052914657 0.04095139
0000f0 37 fe 49 be b8 b5 86 bc 13 a3 a7 3e 02 8e 79 be
       -0.19725882 -0.016444072 0.32741603 -0.24370578
000100 39 e0 9d 3d 17 ac 3f be bb af 6c 3e 14 ab d1 3d
       0.07708783 -0.18717991 0.23113911 0.10237709
000110 e2 5a 05 be 3c 58 26 bd 6b 0a 2e bd 57 b2 93 3e
       -0.1302295 -0.04061149 -0.042490404 0.28847
000120 e0 72 9b be f4 5c 38 3e 90 62 e9 3d 04 3e 71 3d
       -0.3036108 0.18004209 0.113957524 0.058897033
000130 48 b0 90 be 40 e0 9e be 96 33 89 bb e8 31 f8 3b
       -0.28259492 -0.31030464 -0.0041870577 0.0075743087
000140 d2 05 0f be 64 e7 56 be 0c c8 f2 3d e7 47 5b 3d
       -0.13967064 -0.20986706 0.11854562 0.05353537
000150 6b cd 52 bc 36 3f f6 3b 20 49 74 be ff bb 33 3e
       -0.012866358 0.0075148595 -0.2385602 0.17552184
000160 34 32 2a 3d 09 97 62 3e 0d 85 af bd e8 7a 12 be
       0.041551784 0.22127928 -0.08570299 -0.14304698
000170 70 3d 25 be 37 fd 17 bd 74 06 98 bd e2 fc b1 3d
       -0.16136718 -0.03710672 -0.07423106 0.08690812
000180 00 91 0b be d1 46 cf be 1a 71 d7 3d bf 39 a7 3e
       -0.13629532 -0.40483716 0.10519619 0.32661244
000190 a4 98 9f bd 19 47 83 bd f1 ef 99 be 70 2b 90 be
       -0.07792786 -0.06410045 -0.30065873 -0.2815814
0001a0 19 81 8c bd 91 59 0f 3e 6e 6a 01 bd 92 d7 b2 bd
       -0.06860561 0.1399901 -0.03159564 -0.08732523
0001b0 79 53 5b bd c3 21 2e 3e 16 e0 87 be 0b 0a a8 3d
       -0.053546403 0.17005067 -0.26538152 0.082050405
0001c0 30 75 e5 be a3 77 cc bd 4d d4 14 bd 62 69 e9 3c
       -0.4481597 -0.099837564 -0.03633528 0.028492633
0001d0 c9 86 07 bd 6f b0 5d bc df ed 2d be e6 f0 fb 3b
       -0.033087526 -0.013530835 -0.16985272 0.0076886294
0001e0 f6 4b 2e 3d d3 91 62 bd 5a 0c 02 3e 51 cc b2 3d
       0.04255291 -0.05531485 0.12700024 0.087303765
0001f0 88 db 50 be 38 e8 8d bd e2 49 69 be e5 95 f8 3c
       -0.20396245 -0.06929058 -0.2278209 0.030344913
000200 f7 8e b7 3d 89 59 d3 bd 3b 86 30 bd 5b 97 af 3e
       0.08962815 -0.10319812 -0.043096762 0.34295163
000210 7e 89 9a bd f4 64 09 ba bd f4 80 3a 6c f0 df 3d
       -0.07545756 -0.00052411784 0.0009838563 0.10934529
000220 ee 5c b8 3d 19 f4 bf 3d b5 75 92 bb 23 f7 9d 3c
       0.090021 0.0937273 -0.004469598 0.019282883
000230 87 7b 15 be fe 63 91 bc 7d 9a 35 3b ee be ae bd
       -0.14597903 -0.017747875 0.002771049 -0.08532511
000240 33 a1 76 3d 1a 63 19 3e 0f e2 1a 3e 4c ea 07 bd
       0.060212325 0.1497921 0.15125297 -0.033182427
000250 6f 3b 56 bd 1b d4 64 be a9 1e 0b 3e 4b 2c 64 3e
       -0.052302774 -0.22346537 0.13585915 0.22282521
000260 8a 9a 20 3d 88 db c0 3d 20 c5 17 3e e1 ee a2 3c
       0.03920988 0.09416872 0.14821291 0.019889297
000270 5e be 6a bd 2d 22 f2 bd 23 35 d8 bd 54 ae f8 3b
       -0.057310455 -0.11822925 -0.1055701 0.007589141
000280 a7 9b de 3a c1 d7 11 be 5b 2a 21 be 96 59 f9 3b
       0.0016983644 -0.1424246 -0.15738814 0.0076095564
000290 27 9d 04 bf 42 85 d1 3d 9f 0b f0 3c 26 4f 9c 3c
       -0.51802295 0.10230495 0.029302416 0.01908071
0002a0 48 74 00 be 8a 1e 93 3e 3d fa 08 be 0a 9a b7 3d
       -0.12544358 0.28734237 -0.13376708 0.089649275
0002b0 b3 be 3b be 02 fb d1 3d 4a d0 a3 be a3 d9 0f 3e
       -0.18334465 0.10252954 -0.3199485 0.14047866
0002c0 ea 6c 70 3e be b6 16 bd bc fc 3c bc eb ee 68 3d
       0.23479047 -0.03679537 -0.011534866 0.056868475
0002d0 3e 21 c5 3d 54 17 9f bb a2 ea d7 3b 0d ba 85 3c
       0.09625481 -0.004855076 0.0065892497 0.016324067
0002e0 27 e5 1d 3d 1d c4 67 bd a4 69 90 be e5 2d 90 bd
       0.038548615 -0.056583513 -0.28205597 -0.07040004
0002f0 96 09 8d bc c7 fa 2a bd ec 44 17 3c 69 93 c0 bd
       -0.017216485 -0.041743066 0.009232741 -0.09403116
000300 2c 8d ac bd a7 f2 13 3b 06 29 0e be ef 6e a4 bd
       -0.08425364 0.0022575052 -0.13882837 -0.080289714
000310 7d fa d6 bd e1 9b d6 3c a9 6c db 3c 6a 86 a8 bc
       -0.104969956 0.026197376 0.026785212 -0.020571906
000320 39 8c 88 bd 39 c4 4c be 51 8c 0f be c4 cb e6 bb
       -0.0666737 -0.19996728 -0.1401837 -0.0070433337
000330 77 83 a3 be 88 40 1b be c0 16 a3 3d 10 77 ab 3e
       -0.31936237 -0.15161335 0.079633236 0.33489275
000340 53 20 4d 3e 36 3c 82 3c 4b d0 07 3e 0e 0d 1f 3e
       0.20031862 0.015897851 0.13263051 0.15532324
000350 96 b1 8b 3c d4 81 89 3c d6 97 ee bc 75 95 86 3d
       0.017052453 0.01678554 -0.029125135 0.065714754
000360 85 07 9f 3e d8 a1 c2 bd 0f fd 16 be 21 12 0e be
       0.31060424 -0.095035255 -0.14744972 -0.13874103
000370 e3 a2 09 bd d7 ab 7f bd 6c 20 71 be 98 6b d8 3d
       -0.033602607 -0.06241974 -0.23547524 0.10567397
000380 68 15 a6 3d f9 dd 71 bd 18 31 bd 3e 4e a4 87 bd
       0.08109552 -0.05904958 0.36951518 -0.066231355
000390 ef cc 3f bd ed d9 8e 3d cd 5a ab bd 94 47 a6 3c
       -0.0468263 0.0697516 -0.08366928 0.020297803
0003a0 42 bc ab bd d6 3d d0 be 40 22 90 3d 86 59 42 be
       -0.08385517 -0.40672177 0.07037783 -0.18979463
0003b0 ed df 52 bc 0b a2 83 bd 6a 06 4f 3d 43 fd 37 3c
       -0.012870771 -0.064273916 0.050543226 0.011229816
0003c0 a6 ca db bd f5 a1 33 3e 38 96 7e 3e fa 11 1c be
       -0.107320115 0.1754225 0.24861991 -0.15241233
0003d0 62 b8 b3 be c3 4f 3a 3e 43 77 ba bd 3b f6 d5 bd
       -0.3510161 0.18194489 -0.091047786 -0.10447355
0003e0 dd 57 65 3e 79 12 7e bd ae c5 0b be b1 9e 92 be
       0.22396798 -0.062029336 -0.13649628 -0.28636697
0003f0 64 1f 9a 3e 9b 52 20 bf 0d 3f 0b bd e3 5a 27 be
       0.30102074 -0.62626046 -0.033995677 -0.16343264

block_10_expand_prelu/Neg_neg f4 [1, 1, 48]
000000 e4 b7 1f 3f 08 23 6a 3d e3 51 34 3f d6 73 1c 3e
       0.6238997 0.057162315 0.7043745 0.15278563
000010 be 49 11 3f 24 74 e0 bd ac 1b e5 3e 7c 3f 24 3f
       0.56753147 -0.10959652 0.44747674 0.6415937
000020 bc 43 44 3e a0 9e 64 3f c4 51 2a be 24 c9 93 3e
       0.19166464 0.8930454 -0.16632754 0.28864396
000030 6e 41 3b 3f 11 9e f1 3e 81 30 22 3f 07 d4 86 3e
       0.7314671 0.47190908 0.6335526 0.2633364
000040 4b 07 74 3c 3b df 66 3e 71 99 0f 3f 09 9f 01 3f
       0.014894317 0.22546093 0.5609351 0.50633293
000050 e6 50 91 3f 1d 06 6a 3f 86 35 f2 3d 1a 69 8e 3f
       1.1352813 0.9141558 0.11826615 1.1125824
000060 ea 16 64 3f 2e 33 a7 3f ee a1 f2 3e 30 c0 c2 3e
       0.89097464 1.3062494 0.47389168 0.38037252
000070 6c ac 37 3e 3a 4c 8e 3f 33 ec 1e 3f b3 6e 26 be
       0.17936867 1.1117013 0.6207916 -0.16253166
000080 ae b6 3b 3f fb 17 78 3f 69 f4 7e 3e 1c ee 75 3d
       0.7332562 0.9691159 0.24897923 0.060041532
000090 1b 29 e0 3e 8b d7 72 3e 1a c6 09 3f 58 f0 a4 3e
       0.4378136 0.23715036 0.53817904 0.32214618
0000a0 5a 03 3d 3f ad fe 59 3f 31 f7 82 3f 65 83 b3 3e
       0.7383324 0.8515423 1.0231687 0.35061184
0000b0 02 db 95 bd d2 e6 5f 3e a7 c1 72 3f a9 3f 36 3d
       -0.07317163 0.21865395 0.9482674 0.044494305

block_10_project/Conv2D_bias f4 [32]
000000 21 5e 6d be 48 df 37 bf 60 e3 bf be d9 2b 0a bf
       -0.23180439 -0.71825075 -0.3747816 -0.53973156
000010 d9 4e 03 be cb 4a f8 3e ab 77 31 3e 7a 95 27 be
       -0.12823047 0.48494563 0.17330806 -0.16365615
000020 27 b1 90 be 01 af 5f 3e 1b c7 5c be 6a c0 49 3f
       -0.28260157 0.21844102 -0.21560328 0.78809226
000030 78 bd 76 be 33 83 1e bf 26 ce 56 3e c1 f3 9b be
       -0.24095714 -0.61918944 0.20977077 -0.30459407
000040 4d 60 0a bf c6 22 9e 3f e2 5d c4 be f7 e8 cc be
       -0.54053193 1.2354362 -0.38352877 -0.40021488
000050 b4 df 14 3e ff 85 fb be 03 f7 1a bf 86 9f 4f bf
       0.14538461 -0.49125668 -0.6053316 -0.8110279
000060 e6 38 ce be db 2d 4b bf 89 8a 9a 3e d9 8a 53 3d
       -0.40277785 -0.79366845 0.3018382 0.051646087
000070 bc 79 5d 3e 10 8d 88 3b a8 aa 18 3e 9b db 05 be
       0.21628469 0.0041672066 0.1490885 -0.13072054

block_10_project/kernel f4 [32, 1, 1, 48]
000000 ac 5a 77 be d2 71 a3 3e e1 f2 19 bd ea 7e 70 bd
       -0.24155682 0.31922776 -0.037585143 -0.058714785
000010 08 78 30 bd 48 3b 0e bd 7e 49 d4 3d fd 34 e7 bd
       -0.04308322 -0.034724504 0.1036558 -0.112894036
000020 ec 37 1f 3e 69 42 2b bd d5 95 c1 3d c9 c5 33 3a
       0.15548676 -0.04181138 0.09452406 0.00068577804
000030 5b 64 0b bd 41 93 1d bd 03 e9 2f 3e 28 b4 df bc
       -0.034031253 -0.03847051 0.1717873 -0.027307585
000040 12 e2 15 3e b3 b4 ba 3d 5b 3c 6d bb 53 fb 23 3d
       0.1463702 0.09116497 -0.0036199305 0.040034603
000050 69 32 ef 3c 7f 60 05 3c 91 13 1c 3b 6e 48 2c bd
       0.029198842 0.008140682 0.0023815373 -0.04206126
000060 4e 65 b8 bc 0d 4d 20 be 4c eb 4b 3d 7a 45 33 be
       -0.022509243 -0.15654393 0.049784943 -0.17506972
000070 51 eb af bd 1c 31 15 bd 2d 3d 2d 3c 7a 08 6e 3e
       -0.08589805 -0.036423787 0.0105736675 0.23245421
000080 0e 29 5e bd 3b 73 32 3d 69 cd 04 3e 0c f8 64 3d
       -0.05423837 0.043566924 0.12968983 0.05590062
000090 80 06 a5 3d 01 a8 95 3d 6b 95 50 3e a9 4d 13 3e
       0.080578804 0.07307435 0.20369498 0.14385094
0000a0 67 e4 78 bd 30 06 ff bd 58 da a8 3d c2 9f 49 3d
       -0.060764696 -0.12452352 0.08244771 0.049224623
0000b0 70 14 89 bd f0 9b 33 3e 58 4e a4 bd 1e 28 06 be
       -0.06693351 0.17539954 -0.080227554 -0.13101241
0000c0 cc 3a b0 bb 00 2b 62 3d 22 96 7f bd 9c 05 c3 3d
       -0.005378103 0.05521679 -0.062399037 0.09522554
0000d0 d4 5c 85 bd 12 cb d5 3d e7 33 64 3d b4 ed 0a 3e
       -0.06511846 0.10439123 0.05571356 0.13567239
0000e0 3c 7a 25 3c 4b a7 a9 bd 4b 7f 29 3c 20 c4 d4 3d
       0.010099944 -0.08283862 0.01034529 0.103889704
0000f0 69 4e 23 3e 2d fa da 3e 35 9e 38 bd 7e 31 52 3e
       0.1594788 0.42768994 -0.045072753 0.20526692
000100 17 a8 37 be c6 11 89 bd 79 fa 84 be c5 f3 5c 3e
       -0.17935215 -0.06692843 -0.25972345 0.21577366
000110 3c 6c 82 bd 2c 39 17 3f 15 2d 68 3e 4d 8f a0 3e
       -0.063683 0.5907161 0.22673447 0.3135933
000120 d1 51 71 3e fe 10 1d be 0e 09 32 3d b7 57 87 be
       0.23566367 -0.15338513 0.043465666 -0.2643411
000130 e6 95 05 3d c6 7b b6 bd 54 9f b1 3e 42 20 74 3e
       0.032613657 -0.08910327 0.3469187 0.2384043
000140 9f b6 18 be 4f 55 96 3d 87 2b 5c 3d 9d 8d 50 be
       -0.14913414 0.0734049 0.05375245 -0.20366521
000150 21 1e be 3c 6d c3 5e 3e 95 b7 d9 bc 7b e9 00 bc
       0.023207726 0.21754237 -0.026576797 -0.007868166
000160 aa ab e8 bd 74 11 1b be 91 23 5b be bc b7 b6 3d
       -0.11360867 -0.15143377 -0.21400286 0.08921763
000170 02 b6 16 be f6 1e 8a 3e 0d 67 9f bd 70 19 10 ba
       -0.14717868 0.26976746 -0.07783327 -0.00054969545
000180 35 ed 46 be 23 fa 64 bd 01 4f 3d be cf 8b 41 3e
       -0.19426425 -0.05590261 -0.18487169 0.18900989
000190 b1 ca 2e 3c 75 b4 a4 3d 16 dc ca 3b dc ca 26 3e
       0.010668443 0.08042232 0.006190787 0.16288322
0001a0 9d 39 ce 3d d3 8a e4 bc bf 4e f3 3d cc bd 7b 3c
       0.100695826 -0.027898228 0.11880254 0.015365075
0001b0 9e cf 0d 3c 0a b7 a2 bd 63 51 12 3d b1 d9 3d 3e
       0.008655457 -0.07945068 0.035722148 0.18540074
0001c0 6c 49 97 bd 11 15 2d 3d 07 e7 9e bd e1 75 5e 3a
       -0.07387051 0.04225642 -0.07758909 0.0008486193
0001d0 71 97 ec bd 18 f3 ac ba e6 c4 5b 3d b8 73 08 be
       -0.11552323 -0.0013195006 0.053654574 -0.13325393
0001e0 f5 f5 b8 3d 3f b0 93 bd f1 42 31 3d 8f 03 cf 3b
       0.090312876 -0.07211351 0.04327673 0.006317563
0001f0 43 24 cd bd bc 5f 7f 3d 68 30 09 bd 1e 18 2e 3e
       -0.10016682 0.06234716 -0.03349343 0.17001387
000200 0a 8a 56 bd 23 49 94 3e e4 c8 72 3c d1 c5 aa bd
       -0.052377738 0.2896205 0.014818404 -0.08338512
000210 e0 23 82 bb 8e 7f 22 be 39 92 0d 3d 8c 27 9e bc
       -0.003971562 -0.15868971 0.034563277 -0.019305967
000220 6b 0a 2a 3e ff eb 0c 3d a6 13 51 3e 2b 4d 5c 3e
       0.16605537 0.03440475 0.20417652 0.21513812
000230 ed a8 d3 3d 5e 36 45 3e 5d ce 01 3e 76 63 09 bd
       0.103349544 0.1925902 0.12676378 -0.03354212
000240 81 8e ee 3c b7 d2 4d 3e a5 25 8d 3e b9 52 a2 bd
       0.029120686 0.20099913 0.27567783 -0.07925934
000250 5c 31 07 3e d3 ad 98 3d f0 51 9d 3e 08 a9 e9 3d
       0.13202423 0.07455029 0.30726576 0.11409193
000260 25 e0 72 bd c1 47 ab 3d 1a b7 86 bd 38 33 cc bd
       -0.059295792 0.08363295 -0.065778926 -0.09970707
000270 12 3a 0d be b3 b2 ae bd 1d 8a b3 bc 68 62 10 3e
       -0.13791683 -0.08530178 -0.021916443 0.14100039
000280 2e 7e 01 bc 79 15 4a be 0b 54 9d bd 56 69 bf 3b
       -0.007903619 -0.19734754 -0.076820455 0.0058414144
000290 a9 fb e2 3d d4 be ea 3d 39 a6 11 be 5d 40 93 3e
       0.110831566 0.11462179 -0.14223565 0.28760043
0002a0 09 e3 d3 bd 0e 0b 37 bd 6f a5 88 bd 23 57 e9 3d
       -0.10346038 -0.044688277 -0.06672179 0.11393573
0002b0 38 77 8d 3e 02 25 b5 3c 0a de 80 bc f6 f1 d5 3d
       0.2763002 0.022112373 -0.015730876 0.10446541
0002c0 58 ea 43 bd 62 ab 0d 3e dc c1 11 3e ca bb b9 3d
       -0.04783091 0.13834909 0.14234108 0.09069021
0002d0 e2 79 87 bd ba 66 86 be 41 03 2a be 3c 43 da bd
       -0.06615044 -0.2625025 -0.16602804 -0.10657355
0002e0 a7 85 84 3e 17 9c b7 bb 32 b3 a7 3d 38 82 88 bb
       0.2588322 -0.005603324 0.08188476 -0.004165914
0002f0 4f 6e c4 3c d9 51 22 3e bb 1b 63 bd be 9b 06 3d
       0.02397838 0.15851535 -0.055446368 0.03286337
000300 b2 9f 98 3d 7d d5 aa 3d 0b dd bc bd ab 2b d4 3c
       0.074523345 0.08341501 -0.09221848 0.025899729
000310 37 74 a4 3d 22 4f 83 bd 99 a8 32 bd e5 82 c0 3d
       0.08029979 -0.06411578 -0.04361782 0.09399966
000320 0b 79 1f 3e 85 ca 2a 3e 80 b9 a5 3d d8 61 04 3d
       0.15573518 0.16678818 0.08092022 0.032319874
000330 9b 29 49 3d 35 1c 1f 3b 6d 19 29 3d f6 53 0e 3a
       0.049111944 0.0024278287 0.041284014 0.0005429381
000340 35 6f 86 3e ec 27 cf 3c 2c db 1f 3e 59 66 10 3e
       0.2625672 0.02528759 0.15610951 0.14101543
000350 45 23 9c bd 3a 87 94 bd 9e 7f 4e bd e0 49 9c bd
       -0.07623915 -0.07252355 -0.050414674 -0.07631278
000360 d6 47 c0 3d 3a 81 19 bd b7 5c 24 3e 38 35 5d 3b
       0.093887016 -0.037476756 0.16050993 0.0033753645
000370 a8 8c 1f be b3 ad 44 be d6 4f 73 be 97 e3 7a 3d
       -0.15581 -0.19206886 -0.23760924 0.061252203
000380 e8 23 d7 bd f5 18 fb 3d 8a 19 8d 3d dc 19 d4 bd
       -0.105048954 0.122606196 0.06889637 -0.10356495
000390 22 69 31 3b 1a 12 2f 3e bc 64 e8 ba 19 cb d8 bc
       0.002707072 0.17096749 -0.0017730216 -0.026464032
0003a0 ca 7e bf 3d 70 fb 96 bd d5 54 c3 bd ed ef d4 3a
       0.09350355 -0.07372177 -0.09537665 0.001624582
0003b0 58 4e b0 3d 50 54 e6 bd 4f 46 c6 bd 2b 21 42 39
       0.08608693 -0.1124655 -0.09681379 0.00018513638
0003c0 48 41 a0 be 33 6f 76 bb 4d 95 ee 3a ee 55 37 3d
       -0.31299806 -0.00376029 0.0018202454 0.044759683
0003d0 62 40 42 3d f2 c6 92 3d a3 bc 9b bd 6b d5 3f 3d
       0.04742468 0.07166852 -0.07604339 0.04683439
0003e0 69 ca 8f bc 90 91 bc 3e 81 54 bf bd 60 e5 41 be
       -0.017552571 0.36829805 -0.0934229 -0.18935156
0003f0 7a 98 d8 bc e9 43 e3 3d 30 6f 01 3e 48 c4 36 be
       -0.026439894 0.11096937 0.12640071 -0.17848313

block_11_depthwise/depthwise_bias f4 [192]
000000 a0 db 87 3f 76 17 86 3f 2e 57 ce bf d4 0c 9f 3f
       1.0613899 1.047591 -1.6120355 1.242579
000010 c9 89 80 bf aa c2 5f be 07 11 ad be 50 b9 12 be
       -1.0042049 -0.21851602 -0.33802053 -0.14328504
000020 3c b1 aa be cc b6 4c bf c8 be 98 bd 7d fb 88 be
       -0.33338344 -0.79966426 -0.07458264 -0.2675437
000030 13 ce 96 bf 5c dc e4 be 61 5a 73 bf df a3 76 bf
       -1.1781639 -0.4469937 -0.9505978 -0.963438
000040 c8 78 8e be 5e de 8b bf e1 f0 8a bd 1c 50 99 be
       -0.27826524 -1.0927236 -0.06784225 -0.2994393
000050 25 4c 23 3f fb 25 1e 40 c1 0e 45 3d a3 3c ba 3e
       0.6378806 2.4710681 0.048109774 0.36374387
000060 b5 47 fe bf 8d 5c 6c bf 90 97 4b 3f e2 3a cd be
       -1.9865633 -0.9232872 0.7952814 -0.40083987
000070 80 3c aa 3f f6 ee 2e bf 6d ec 35 40 36 92 44 bf
       1.3299713 -0.68333375 2.8425553 -0.767856
000080 b6 86 17 3f 56 97 d5 3e 08 39 0b bf c4 13 f7 be
       0.5918993 0.41717023 -0.543839 -0.48257267
000090 74 d1 04 3f d3 30 ef 3e 94 4f e3 3e b0 ca 2e bf
       0.518821 0.46716937 0.4439665 -0.68278027
0000a0 ee 18 4e 3f a7 d5 92 3e 00 68 96 b9 1e 76 0f be
       0.8050679 0.2867863 -0.00028687716 -0.14009902
0000b0 40 46 66 3c 3b 49 07 c0 d8 5b 99 3e de 0f 66 be
       0.014054835 -2.1138446 0.29952884 -0.2246699
0000c0 64 3e b9 bc 00 03 3b bc 46 b5 85 bf b5 b8 84 bf
       -0.022612758 -0.0114142895 -1.0445945 -1.0368868
0000d0 3e 4e a1 bf 92 01 e9 3d bb bd 2a bf fb a9 24 3f
       -1.2602003 0.11377253 -0.66695756 0.6432187
0000e0 60 29 09 3f 6d a9 3e bf 22 23 b6 3f 16 12 c4 be
       0.5357876 -0.74477273 1.4229472 -0.38295048
0000f0 06 c4 86 bd 1e eb 70 be 79 98 52 3f 8c a3 11 be
       -0.06580357 -0.2352719 0.82263905 -0.14222544
000100 1d 52 75 3e 92 40 c5 3d b5 84 1e bf 42 55 88 3f
       0.23957105 0.096314564 -0.61921245 1.0651019
000110 08 37 24 3f 82 b1 83 3f ad ca 71 3f 1e ad ec 3e
       0.6414647 1.0288546 0.94449884 0.46225828
000120 33 77 ba be e1 f4 fb 3d 3f d9 93 be 97 5c 0f 3f
       -0.36419067 0.12302566 -0.28876683 0.56000656
000130 86 87 5c bf 64 d0 68 bd 1b af 88 be e9 99 d3 3e
       -0.8614429 -0.05683936 -0.26696095 0.41328362
000140 f2 a5 de bd 02 0b 3d 3f e0 17 32 3c b2 d6 33 bf
       -0.10871495 0.7384492 0.01086995 -0.70249474
000150 80 86 77 3b 78 81 cd be 24 aa 4b 3f f4 85 c6 bf
       0.0037769377 -0.4013784 0.7955649 -1.5509629
000160 b8 27 a2 3f c7 93 45 bf 99 79 dd 3d 52 1c b8 bd
       1.2668371 -0.77178615 0.108142085 -0.08989777
000170 10 c4 2e bf 08 8d be be 2c 27 94 be fc ab ec 3f
       -0.6826792 -0.37216973 -0.28936136 1.8489985
000180 f8 4f 40 3f 21 eb 30 3e 3e 2f 90 bf 70 f5 3f 3b
       0.7512202 0.17277195 -1.1264417 0.002929058
000190 a0 25 d9 3c 70 7a 46 bf b3 fd 43 bf ab 36 a7 3f
       0.026507199 -0.77530575 -0.7655899 1.3063558
0001a0 61 54 56 3e f3 e4 95 3f c4 70 77 be e3 33 bd 3e
       0.20930625 1.1710495 -0.2416411 0.3695365
0001b0 01 ed fd be c9 db 2a 3f 66 c6 42 bf 0f 60 3f bf
       -0.49594882 0.66741616 -0.7608398 -0.7475595
0001c0 b0 4e 28 be 48 50 66 be 78 36 b0 3d e5 20 c2 be
       -0.16436267 -0.22491562 0.08604139 -0.37915722
0001d0 8a 7f 10 bf 80 76 99 3c 0d 99 5d 3e f2 79 30 3f
       -0.5644461 0.018733263 0.21640415 0.68936074
0001e0 6d 5e c0 3f d9 bb dd 3f 9e 07 0f 3f 90 17 6d be
       1.5028816 1.7322952 0.55871 -0.2315352
0001f0 54 c7 0f 3f 15 b1 cb be b2 db dc 3e d6 06 14 be
       0.56163526 -0.3978354 0.43136364 -0.14455733
000200 1a 4e 32 bf f6 f4 1e 40 7e b2 ce be 00 58 e5 bd
       -0.69650424 2.4837012 -0.40370554 -0.11198425
000210 3c ad 70 be 4b b5 dc be 90 fc d9 bc 3c 50 88 3d
       -0.23503584 -0.43107066 -0.026609689 0.066559285
000220 f6 21 48 bf 27 10 1f be 58 c2 98 3f 68 bd d1 3f
       -0.7817682 -0.15533505 1.1934309 1.6385927
000230 b6 af 14 be f8 48 2e be cd 59 ba bf a4 1b f6 be
       -0.14520153 -0.17020023 -1.4558655 -0.48067963
000240 4a 24 08 3f 8f 68 08 bf 1e 61 56 3e 8d 8b 66 be
       0.5318037 -0.53284544 0.20935485 -0.22514172
000250 28 52 fe 3e 61 8f 9e be a0 18 7d be d8 3d 09 3d
       0.49672055 -0.30968764 -0.24716425 0.033506244
000260 49 37 01 3f 78 58 a3 3e 55 01 8f bf 50 a7 67 3f
       0.50474983 0.31903434 -1.1172282 0.90489674
000270 5e 32 a1 3f 22 05 0e bf d1 98 33 bf 1f 95 89 3c
       1.2593496 -0.5547658 -0.70155054 0.01679474
000280 0f ee ba 3f c8 2c ca 3f 42 11 8c 3f c5 27 22 3f
       1.46039 1.5794916 1.0942767 0.63341933
000290 ee 90 c6 be a0 10 d8 3e 5d 8b 95 3f 82 5f dc 3e
       -0.38782448 0.42200184 1.1683155 0.43041617
0002a0 c8 30 80 bf 09 9a 79 bf 92 26 4f 3f b2 61 3e bf
       -1.0014887 -0.97500664 0.8091823 -0.7436782
0002b0 e4 38 01 3e 43 9b 61 3f c2 36 64 bf f4 dc a2 3f
       0.12619358 0.88127536 -0.89146054 1.272368
0002c0 f8 7a 94 be 0e 89 56 3f 19 eb 1e 3e b4 a0 a3 3e
       -0.29000068 0.8380288 0.1551937 0.31958544
0002d0 84 bf ac 3e 30 2c 86 3f c4 65 e9 3e a8 0c 5e 3f
       0.33739865 1.0482235 0.45585454 0.8673806
0002e0 7c fd 44 3f b1 6f 0a be 86 4d e1 be 40 7c 48 3f
       0.76949286 -0.1351917 -0.44004458 0.7831459
0002f0 c2 1e a5 be de ff 60 be 37 32 b2 be 5c b4 d3 3d
       -0.3225003 -0.21972606 -0.34803936 0.10337135

block_11_depthwise/depthwise_kernel f4 [1, 3, 3, 192]
000000 5d d6 d5 3b 54 f7 38 3d fd 1b d1 3e 5f 1f 38 bf
       0.0065257982 0.045157745 0.40841666 -0.7192287
000010 56 87 40 3e e1 a7 95 3b 63 eb 18 40 63 85 d8 bf
       0.18801627 0.004567132 2.3893669 -1.6915706
000020 c8 b1 ba be 69 1e 19 bc 55 3a 00 3f 54 6d 04 3f
       -0.3646376 -0.009345629 0.5008901 0.5172932
000030 66 d7 80 3e 29 ae 25 bf a2 28 4b 3e 61 7c 05 bd
       0.25164336 -0.6471887 0.19839719 -0.03258932
000040 75 3d 4f 3f 2d a1 06 3e 6e ca 8e 3d 91 8a 16 3f
       0.8095315 0.13147421 0.06972204 0.58805186
000050 98 58 59 3f e6 d8 5c bd 7c 67 d6 3d cc cc 46 3e
       0.8490081 -0.053917788 0.10468957 0.19414061
000060 3d 3f 9c 3c 6d e6 73 bf 73 4d d2 bd 40 3f 41 3f
       0.019073123 -0.95273477 -0.102686785 0.75487137
000070 3f 23 4c 3f 50 20 8b 3f 3b 0a d2 bf 74 aa ae 3e
       0.7974128 1.0869236 -1.6409372 0.3411442
000080 51 d6 09 3f cb db 14 bf 2c b4 07 bf 5f 33 31 3f
       0.53842646 -0.5814788 -0.53009295 0.6921901
000090 e6 7f 3c bf 3e 3a f6 3c 77 e9 f6 3e 61 37 38 be
       -0.7363266 0.030057069 0.48224995 -0.17989875
0000a0 bb b2 df bf df 83 33 bf dd 82 55 bf 34 62 45 3e
       -1.7476419 -0.70123094 -0.83402807 0.19275743
0000b0 ae c8 23 be ae 01 d6 3e fa db 98 3f 82 a7 d2 3e
       -0.15994522 0.41798156 1.1942132 0.41143423
0000c0 e3 ff d0 3d ea d2 27 be 3b ef b7 3d 96 87 72 3f
       0.102050565 -0.16389051 0.089811765 0.9473814
0000d0 00 c0 84 3f 5f 3d 11 be d4 92 4c bf 21 86 fd 3d
       1.0371094 -0.14183567 -0.7991154 0.12379099
0000e0 32 08 2d 3e fc a9 54 3e f5 62 eb 3d a5 48 5c bf
       0.16897658 0.20767969 0.11493484 -0.86048347
0000f0 bd 6c b0 be ae f4 6b 3f 6f 36 b7 bf ea 0e 82 3f
       -0.3445796 0.92170227 -1.4313487 1.0160801
000100 5e 9f e2 3d 2f cc fd 3e 8f 58 cd be 8a 50 8b 3e
       0.11065553 0.49569842 -0.40106627 0.27209884
000110 d6 08 20 3f 46 e5 8a bf a8 77 a7 bf cf 6a 55 3f
       0.6251348 -1.0851219 -1.3083391 0.833661
000120 e6 a9 0d 3f ea 80 6d bf ae 34 56 3f 78 de 70 bf
       0.5533737 -0.9277483 0.8367413 -0.9408946
000130 ae 1c 81 be 80 c6 1f be 77 46 4f 3d 0a 6e 72 bf
       -0.25217193 -0.15603065 0.05060431 -0.94699156
000140 14 96 c8 3e e4 41 86 be 0a 84 c0 be 3e f5 30 3f
       0.39177 -0.26222146 -0.37600738 0.6912421
000150 74 f6 ad 3f 1d 47 f0 bd e8 32 55 bf 0d 2b b8 3f
       1.3590837 -0.11732314 -0.832808 1.4388138
000160 ae c8 da be e0 e6 4e bf d5 4a ef bd 2d 54 c5 bd
       -0.4273123 -0.8082104 -0.11684195 -0.09635196
000170 46 2c 15 be ab 19 9b be ff e6 a9 be 86 ef 6c bf
       -0.1456767 -0.3029302 -0.3318405 -0.92552984
000180 ae 02 ef be 6f 14 ab be 7c ad 7c 3f 5b 40 9e bd
       -0.46681732 -0.33414027 0.98702216 -0.077271186
000190 b8 e7 c0 3e ce 52 1e 3f 24 cb 9e 3f 50 23 02 bf
       0.37676787 0.618451 1.2405744 -0.5083513
0001a0 2b 6f bb 3e c5 ac 98 3e 57 53 34 3f ed 09 b2 bf
       0.36608252 0.29819313 0.70439667 -1.3909279
0001b0 a6 cf 63 3e 6e f3 bd be 2a 05 9a 3e 40 79 b2 3e
       0.2224718 -0.37099785 0.30082065 0.3485813
0001c0 5f 6c 1d 3f 75 98 a2 3e aa 36 29 bf db 9e a0 3d
       0.61493486 0.3175694 -0.66099036 0.07842799
0001d0 f5 c9 87 be 97 16 08 bf 90 ee f3 be 57 ec 72 bf
       -0.26521268 -0.5315947 -0.47642946 -0.94891876
0001e0 70 1f 05 bf 60 5b 27 3c 19 25 2c bf 8a 3b 1c bf
       -0.52001095 0.010214657 -0.67244107 -0.6102835
0001f0 ef 6d 0e 3e 01 24 f9 3e b8 ea 1f bf 73 47 56 be
       0.13909124 0.4866028 -0.6246753 -0.20925693
000200 ac 64 65 3d d2 74 a4 bf 84 0d 29 3e 5f ad 8b 3f
       0.05600421 -1.2848151 0.16509062 1.0912284
000210 2b d5 21 be 77 31 09 bf 57 f7 37 bf 10 b6 1f 3e
       -0.15803973 -0.535911 -0.71861786 0.15596795
000220 5b f7 4e 3e b7 c5 9a be fb ac 67 bf 02 5d 33 3d
       0.20211546 -0.3022897 -0.9049832 0.04378987
000230 aa 56 6e 3d 97 88 06 bf af a6 8f 3e 7b 37 86 be
       0.058188118 -0.5255217 0.28056857 -0.26214203
000240 65 02 0e bd 07 6c b7 bf f6 2f 95 3e 69 1f 03 bc
       -0.034670252 -1.4329842 0.29138154 -0.008003094
000250 b5 4b 88 3f 86 82 42 3e ab 0b a2 bf 0e 9a 35 bf
       1.0648104 0.18995103 -1.2659811 -0.70938194
000260 69 56 75 3e 35 f3 33 3f 23 13 d6 3e 8d 8a bc be
       0.23958744 0.7029298 0.41811475 -0.36824456
000270 3b 8b 22 bf 01 88 a3 3f bd d2 bd 3e 73 98 0a 3f
       -0.634937 1.277588 0.37074843 0.5413887
000280 4d ce 69 be 3f 04 f2 be 2c e2 4d be 52 42 4e bf
       -0.22832604 -0.47268865 -0.20105809 -0.80569947
000290 3b 01 e9 3e e8 ee 03 be 5c ed 04 bf 6c 88 8e bf
       0.4550875 -0.12884104 -0.5192468 -1.1135383
0002a0 1f 78 6c be 72 38 22 3f cf 30 83 3e 5d b2 ac 3e
       -0.23092698 0.6336738 0.25623176 0.3372983
0002b0 25 bd 7e 3f 0f 8b dc bf f5 8e 39 3f 06 fb 09 bd
       0.9950736 -1.7229937 0.7248376 -0.03368666
0002c0 ce 13 c3 3f 4e 67 67 bf 51 28 4d be 64 d5 48 bf
       1.5240419 -0.90392005 -0.2003491 -0.7845061
0002d0 36 1e 15 3f 98 6c 2b 3e 52 f1 1e 3e ff 7b 8b 3f
       0.58249223 0.16740644 0.15521744 1.0897216
0002e0 f9 61 dc 3d 62 c7 06 bf 53 63 c0 3f 4b 2f 3e bf
       0.10760874 -0.52647984 1.5030311 -0.74290913
0002f0 1f 36 aa 3e a6 08 90 3d 93 51 b3 3f b2 c7 99 be
       0.33244416 0.070328996 1.400927 -0.30035168
000300 c2 4d 36 bf 8e 50 41 be 78 cb 1c 3e 06 61 40 bf
       -0.712124 -0.18878385 0.15311992 -0.75148046
000310 3b 9e 5b 3d d1 55 9d 3c 1d 8b c4 bc de fe be bf
       0.053617697 0.01920596 -0.023992116 -1.4921529
000320 84 14 9a 3e 67 89 81 3f 2d ee 0c bf 2a 92 cd 3e
       0.30093777 1.0120057 -0.5505093 0.40150577
000330 ed 03 9c 3d f1 65 3b 3f e5 a7 3e 3f ae 29 df 3d
       0.07617936 0.73202425 0.74474937 0.10896622
000340 48 9b fe 3e 85 df b8 be b6 4e 1b be a1 7a bd 3c
       0.49727845 -0.36108032 -0.15166745 0.023129763
000350 2e e7 e3 3d fc 1e bf be a4 b9 07 bf 90 e6 2e bf
       0.111280784 -0.37328327 -0.5301764 -0.6832056
000360 27 dc 53 3f d0 c7 91 be 8a ee a6 bd cf 23 47 3d
       0.827578 -0.28472757 -0.081509665 0.048618134
000370 2d ac af be 02 a9 e9 3e 2d cc 94 bf 06 0c 8d be
       -0.34311047 0.45636755 -1.162481 -0.27548236
000380 37 6d 75 bf cd ae c5 bd dd 81 cf be 97 5b 84 be
       -0.95869774 -0.09652481 -0.40528765 -0.25851128
000390 18 3f 01 3f e2 4f 26 be 06 28 30 3e d8 78 96 3f
       0.504869 -0.1624141 0.17202768 1.1755629
0003a0 6c f5 8b 3f 06 83 35 be b9 bf 96 3f c4 44 7b 3f
       1.0934272 -0.17725763 1.1777259 0.98151803
0003b0 ee b9 99 3d ba d9 23 3f f1 94 37 3f 5d 60 93 bd
       0.075061664 0.640041 0.7171164 -0.07196114
0003c0 7d 4f 60 be 54 ab b4 3f 33 cc 4c 3f 96 c8 b2 3e
       -0.21905322 1.4114785 0.79999083 0.3491866
0003d0 c1 27 fd 3e 0c e9 a6 bb 8c af c1 be f4 54 5d be
       0.49444392 -0.0050936993 -0.37829244 -0.21614438
0003e0 b9 3f b5 be 00 9c 04 3e 5e b9 6c bc 5d c0 0b bf
       -0.3540018 0.12950134 -0.014448492 -0.545904
0003f0 c7 10 79 3d b1 9b 18 bf e4 37 20 bf 91 d8 0b bd
       0.060807016 -0.59612566 -0.6258528 -0.03414208
