app/src/main/assets/bnb-resources/flow/ssd_uint8.tflite (tflite, 235016 bytes, 87 tensors)

conv2_1/Conv2D_bias f4 [4]
000000 48 53 88 3e d3 0c f3 bf 83 00 a5 c0 62 a4 66 c0
       0.2662604 -1.8988289 -5.1563125 -3.6037831

conv2_1/kernel f4 [4, 3, 3, 3]
000000 50 c9 3b 3f a1 27 aa bd 44 78 40 3e 8e 30 3a bd
       0.73354053 -0.0830834 0.18795878 -0.04545646
000010 dc 02 c7 bd 4b 53 84 3d 47 ac a8 3c 80 ad d6 3d
       -0.09717342 0.064611994 0.02058996 0.10482311
000020 a6 3a 97 bd 96 a3 e4 be 5d 96 20 3d 29 06 64 be
       -0.07384233 -0.44656056 0.039205898 -0.22267975
000030 05 95 39 bf 0e 90 eb bd f9 07 e4 3d cd 53 08 be
       -0.7249301 -0.115020856 0.11134333 -0.13313217
000040 b5 96 8b 3d a6 da 1e 3e 85 3f 82 3e 80 cd e2 3e
       0.068158545 0.15513095 0.25439087 0.4429741
000050 e7 e8 45 be f6 dd e3 be 85 f9 b5 be 0e da 0b bb
       -0.19327126 -0.4450528 -0.3554193 -0.0021339688
000060 4c 03 44 3f 1d 1d 52 3d 45 e1 89 bd 17 69 00 bf
       0.7656753 0.051297296 -0.0673242 -0.50160354
000070 61 f2 2a 3e 41 a6 8e bd c3 03 02 bf 08 52 f3 3c
       0.16694023 -0.06965304 -0.5078699 0.029702201
000080 f6 ce 6b be a3 3f 8f bc 50 94 16 be a0 bf 64 bd
       -0.23028168 -0.017486399 -0.14705014 -0.05584681
000090 5d 1b fa be cf cc aa 3c 41 87 8a 3e ac 23 e4 be
       -0.48849002 0.020849613 0.27056316 -0.44558465
0000a0 bf 75 f5 3d ad b9 d4 3e f7 ba 3a be f9 6c db bd
       0.11985349 0.4154791 -0.18235384 -0.10714144
0000b0 94 2c 12 3e 7f 45 b2 bd f8 7e f0 3d 64 53 bb bd
       0.14274818 -0.087046616 0.11742967 -0.09146765
0000c0 92 fc 05 be bc 99 33 3e 29 0c 33 3d ab 90 b7 bd
       -0.13084629 0.17539114 0.04371277 -0.0896314
0000d0 2b 5b 4b be a1 e8 ae be c7 8a 53 bc 17 44 53 bb
       -0.19858997 -0.34161857 -0.012911505 -0.003223663
0000e0 f6 30 1b be 09 21 ea 3a 54 12 15 be a7 5a 50 bc
       -0.15155396 0.0017862628 -0.14557773 -0.012716926
0000f0 f0 7c 2c bd 86 7c 77 be e7 9c 9b 3b 04 fd 81 3c
       -0.042111337 -0.24168596 0.004748929 0.015867718
000100 3c 5d 68 3c 5e 13 9b bd a2 bc b4 3d fd 0f 9a be
       0.014182385 -0.075720534 0.08825041 -0.30090323
000110 09 2b 55 3d 7a cf 75 3d dd 0c ac 3e 14 49 91 3e
       0.052042995 0.06001232 0.33603564 0.28376067
000120 35 cb 80 bd 5f 53 32 bd 87 2d 8c bc 56 c2 88 3d
       -0.06288759 -0.04353654 -0.017111553 0.06677692
000130 e6 54 1a 3f 96 10 8c 3e c2 1d 08 3e bb 4a bd bb
       0.60285795 0.27356404 0.13292602 -0.005776731
000140 77 bf 93 bb c0 50 69 bb 26 d9 ae bd 20 05 f7 bd
       -0.0045089084 -0.003560111 -0.085375115 -0.120615244
000150 44 27 79 3b 89 4d 0a be e1 c2 9b 3e c5 bd 2b bd
       0.003801779 -0.1350614 0.30422118 -0.041929025
000160 41 aa b1 bc 1d 7d 24 3e 71 ac 39 3d b8 be a4 be
       -0.021687629 0.16063352 0.04533047 -0.32176757
000170 02 1d a4 bd 9b b4 6f 3d ba 95 ea 3d cc c3 07 3f
       -0.08013345 0.05852185 0.11454339 0.5303314
000180 9b 3b 03 bd a5 d3 00 3e b9 48 b3 3e cd c6 35 be
       -0.032039266 0.12580736 0.3501642 -0.17751618
000190 d4 a4 7d be 04 a7 d9 3e 38 60 14 ba af 83 e0 be
       -0.24769908 0.42510235 -0.00056600897 -0.43850467
0001a0 33 29 86 3e f9 4a a2 3d e3 fd 40 bf bb 25 b4 3d
       0.26203308 0.07924456 -0.753874 0.08796259

conv2_2/Conv2D_bias f4 [8]
000000 48 21 d9 3f ec a4 52 bf 31 68 c9 3f 0d d1 7e c0
       1.6963282 -0.822829 1.5734922 -3.9815094
000010 f1 94 5a c0 a7 ec 31 3d 78 23 c5 bf 6e 47 ca 3f
       -3.4153407 0.04343858 -1.5401449 1.5803049

conv2_2/kernel f4 [8, 3, 3, 4]
000000 7f 65 a6 be 53 d8 da 3d 48 8e d5 be 52 70 75 be
       -0.3249931 0.10685792 -0.41710114 -0.23968628
000010 5c df ba be 5b b8 15 3e 0f ec b7 be b1 ef 65 be
       -0.36498535 0.14621107 -0.35922286 -0.22454716
000020 d1 30 08 bb 66 a3 56 3f f2 10 c1 be 89 c0 55 3e
       -0.002078105 0.83843076 -0.3770824 0.20874228
000030 d8 93 b0 be ea 05 5f be 19 3a 74 be 4c 46 66 be
       -0.34487796 -0.217796 -0.23850287 -0.22487754
000040 2d 58 de be 2f d8 7f be 8b 6e 1e bf a2 71 f9 bc
       -0.43426648 -0.24984811 -0.61887425 -0.030449692
000050 31 0e df bc 9d 09 00 3e d1 13 a9 be 08 92 b7 bd
       -0.027228447 0.12503667 -0.3302293 -0.089634
000060 c8 c0 bc 3c 23 2b a0 be ec bb 17 be f3 b5 b6 bd
       0.023041144 -0.3128291 -0.1481778 -0.08921423
000070 d5 a8 b5 bc d4 20 53 bf 55 d2 b3 3d 82 f7 12 3e
       -0.022175232 -0.82471967 0.08780352 0.14352229
000080 ff 80 90 bd 7a fc 2c bf 43 9e 3b 3d cc bf b3 3e
       -0.07055854 -0.6757275 0.045805227 0.35107267
000090 b2 15 a6 bc f3 ae 5e 3e 33 2c 41 3e 36 03 a5 3e
       -0.020274017 0.21746425 0.18864517 0.32229012
0000a0 f3 b3 ad 3d 9f 99 de bd 43 93 bd bd df 65 e2 3d
       0.08481588 -0.10869145 -0.092566036 0.110545866
0000b0 a0 15 d9 3d cb e7 95 be 64 e6 c0 bd af 75 a5 3d
       0.10599828 -0.29278407 -0.094189435 0.08079087
0000c0 fc 26 59 bd a4 46 64 3e 7c 42 fc 3d ac a5 11 be
       -0.053015694 0.22292572 0.123173684 -0.14223355
0000d0 da c4 d0 3d 10 22 08 3e f9 1e 6b be 99 48 28 3e
       0.101937965 0.13294244 -0.22961034 0.16433944
0000e0 9d 7c b3 3d 84 19 e8 be cf a7 84 3e 06 aa 1d be
       0.087640025 -0.45331967 0.25909278 -0.1539689
0000f0 76 57 cc bc 8e 57 89 3e fd c9 2b be 33 03 04 be
       -0.024944048 0.2682461 -0.16776271 -0.12891845
000100 1b 3e 34 3d a3 60 80 bd 52 38 3e 3d 2f ff 42 be
       0.04400454 -0.06268432 0.04644043 -0.19042657
000110 a9 5c c5 bc 30 8f cd bc ba 8e 54 3e 0b 1e 08 bf
       -0.024092035 -0.025092691 0.20757571 -0.5317084
000120 54 0a f2 bc 0a d9 4a be 92 8d ce 3e 17 a2 fb be
       -0.02954594 -0.19809356 0.40342385 -0.49147102
000130 4f 4b 07 3d af 51 ee 3e 94 d0 b6 be e7 d4 9a 3e
       0.033030804 0.46546695 -0.35706007 0.30240557
000140 9d 22 a3 3d 1e 54 b1 3e 23 54 01 3d 67 25 f8 3e
       0.07965586 0.3463449 0.03157438 0.48466036
000150 8b 13 61 bd f7 53 56 3e be ee 66 3e 46 f4 25 bf
       -0.05495028 0.20930468 0.2255201 -0.64825857
000160 44 5a b6 bc 0d 07 ce be 05 2c 06 be dd 5b 36 bf
       -0.022259839 -0.40239754 -0.1310273 -0.7123392
000170 3e 31 dc 3d ae da 4d be 53 dc 01 3e fa 3f d3 3e
       0.1075158 -0.20102951 0.12681703 0.41259748
000180 fc e6 41 3d b2 cb 9e 3c aa 4f 6b 3e 05 b9 59 3c
       0.047339424 0.019384239 0.22979608 0.013288741
000190 66 60 04 3d e5 db 58 be d1 e9 f4 bc 1d c5 ea be
       0.032318495 -0.21177633 -0.029896649 -0.4585351
0001a0 26 09 79 3d 6f fd 97 3c 90 84 fd bd 77 09 ec 3d
       0.06079974 0.018553464 -0.123788 0.11525243
0001b0 4e 84 a1 bd fe 08 a0 3e e9 65 f1 3e 29 bf 67 bd
       -0.07886563 0.3125686 0.47148064 -0.05657879
0001c0 6a dd 93 bc 41 f1 72 3e a7 13 3a be 3b 9b e7 3d
       -0.018049914 0.23724844 -0.1817156 0.11308905
0001d0 e4 f3 87 3d b0 de 2b 3c 70 d0 fd bd 25 e7 fd 3c
       0.06638315 0.010490105 -0.12393272 0.030994007
0001e0 87 21 a5 bd 3e 94 c5 3e 42 10 ba be e8 11 37 3d
       -0.080630355 0.38589662 -0.3634053 0.04469481
0001f0 d7 72 84 bd d6 66 00 3e 9d 3c 33 be 1d a9 0a 3e
       -0.064672165 0.12539229 -0.17503591 0.13541074
000200 44 e2 9d 3d 6a 79 a6 be 58 d7 64 3e ce 1b 0b 3d
       0.07709172 -0.32514507 0.22347772 0.033962063
000210 81 50 0a bd df 0e ad 3c f4 c2 25 3e f1 18 15 be
       -0.03376818 0.021125255 0.1618765 -0.14560296
000220 c8 9f 3b bd 8f d8 db be 9d b5 de bd c4 7c 17 3e
       -0.045806676 -0.4293866 -0.10874484 0.14793688
000230 b6 63 58 bd 6c e3 12 bf 35 be 67 3e 40 c9 94 bc
       -0.052829467 -0.5737827 0.22631152 -0.01816237
000240 37 11 1d bd 0b 63 1e bd 2a a7 d5 3e 03 a6 b4 bd
       -0.038346495 -0.038668673 0.417291 -0.08820727
000250 f4 9e 6b bd 0a 82 24 3c f3 87 9a 3e a3 a3 22 3c
       -0.057524636 0.010040769 0.30181846 0.009926709
000260 0b a3 a6 bd 82 89 e7 3e 7b 03 cd be c3 74 fd bd
       -0.08136567 0.45222098 -0.40041718 -0.12375786
000270 5d ab b7 bd 05 73 34 3d d5 8f 7b 3e 5d fa ad bd
       -0.08968232 0.044055004 0.24566586 -0.08495019
000280 f0 15 2f be de 11 2e be 35 9e 2e 3e bb 42 ed bd
       -0.17098212 -0.16999003 0.17052539 -0.115849935
000290 7b a6 fb bd 88 6b 4a bd a6 e8 b9 bd 78 ea 47 3d
       -0.12287613 -0.049418956 -0.09077577 0.04880759
0002a0 df 58 98 bc ae 61 b7 be 7a c9 98 3e 1f 03 37 3c
       -0.018597065 -0.3581671 0.29841214 0.011170178
0002b0 4e 29 ae bd 2e 91 08 3e a6 4c b5 3e 85 21 66 be
       -0.08503972 0.13336632 0.3541004 -0.22473724
0002c0 8e cd 15 bd 3d 03 bc 3e 2c 10 ac be 56 f9 c6 3e
       -0.036572985 0.3672122 -0.33606088 0.38862103
0002d0 23 c6 8f be 52 bf a3 be db ca bc 3e be 36 c6 3e
       -0.28080854 -0.31981903 0.36873516 0.3871364
0002e0 97 1f 32 bf 25 cc 79 bc af ca 0d 3e aa 96 26 be
       -0.6957945 -0.015246426 0.13846849 -0.16268411
0002f0 d5 40 0b bf c4 b9 42 3d 51 98 ea bd 4c c4 3e be
       -0.543958 0.04754044 -0.11454833 -0.18629569
000300 a7 57 2b bf 46 47 83 bd 14 9a 46 bd 80 4d f2 3d
       -0.6693062 -0.06410079 -0.048486784 0.11831188
000310 ac a8 94 bf 9e 75 9e bd c7 17 a9 3e a7 9e a1 3e
       -1.1613975 -0.077372774 0.33025953 0.31566355
000320 c3 2a 2d bf d7 de 1f 3e 90 fb 38 3d 0d 00 00 be
       -0.67643374 0.1561235 0.045161784 -0.1250002
000330 8a db d4 be 72 c8 8f 3c 47 7d d3 3d 43 43 3d be
       -0.41573745 0.017551634 0.10326629 -0.1848269
000340 d0 7b 1e bf 2e 29 64 bd e7 38 ac 3b f3 31 e1 bd
       -0.6190767 -0.055703335 0.0052558067 -0.10995855
000350 1b 23 49 be 36 1c 86 3c e3 2d b8 be 67 a0 37 3e
       -0.19642298 0.016370874 -0.3597251 0.17932282
000360 7a 62 93 3c 88 07 83 bf 3a 37 cc 3d d2 26 99 3e
       0.017991293 -1.0236673 0.09971471 0.2991243
000370 4c e4 2a 3c ec ae 83 ba cf 84 4c 3e 98 68 70 be
       0.010430407 -0.0010046638 0.19972537 -0.234774
000380 09 da 2b 3d 7f 3d 99 3e 05 a9 de 3d db dc 8e be
       0.04195598 0.2992973 0.10872082 -0.27902874
000390 44 e4 12 bd 3d ed 97 be f9 51 b1 3e b3 a4 8f 3e
       -0.035862222 -0.29673186 0.34632853 0.28055343
0003a0 31 73 04 3c f5 01 ba 3d 33 ac 8a 3e d2 9d 38 be
       0.008084104 0.090824045 0.27084503 -0.18028954
0003b0 0c 68 8a 3d 6e 35 04 3e 89 55 9d be 96 82 63 be
       0.067581266 0.12911007 -0.3072932 -0.22217783
0003c0 cd c7 7e bc a4 ec 18 3e 1a 6c b1 be 54 6f ae 3e
       -0.015550566 0.14934021 -0.34652787 0.34069312
0003d0 19 53 a0 3c 92 1a 01 bc 4e 03 b3 be 6c df 4d 3e
       0.019570874 -0.00787987 -0.3496346 0.2010476
0003e0 ec 89 dd 3c ae 0c f1 3e 25 49 83 3d 16 09 d8 bd
       0.027043305 0.47079986 0.064104356 -0.10548608
0003f0 1a 79 e7 bd 9d ca b0 be e1 2e 77 be 78 8c d8 3d
       -0.11302395 -0.34529582 -0.24138977 0.10573667

conv3_1/Conv2D_bias f4 [8]
000000 bf 8e 0b bf 95 13 c7 3e eb f6 9d 3e 71 71 8e 3e
       -0.5451469 0.38882127 0.30852446 0.27820924
000010 8e 22 03 40 3d df af be 40 32 3b bf 9f 7a 4a c0
       2.048984 -0.34350005 -0.7312355 -3.1637342

conv3_1/kernel f4 [8, 3, 3, 8]
000000 37 85 23 3e ae 56 d1 bd 33 b1 c9 bc 97 35 4c 3e
       0.15968786 -0.10221611 -0.024620628 0.19942318
000010 fa 77 ff bd 11 b8 13 be de 0b aa be de 19 ba bd
       -0.124740556 -0.14425685 -0.3321218 -0.09086965
000020 4f 87 2b bf 92 54 0c be 3a f4 9e be a7 ef 58 3e
       -0.6700334 -0.13704136 -0.31045705 0.2118517
000030 33 4b 42 3e 14 1f f8 3d 5f 7f be be e1 f4 a2 be
       0.18973999 0.12115303 -0.3720655 -0.31827453
000040 19 fc 06 bf 9f cd 3d bb 15 26 79 bd a8 6c 40 be
       -0.5272842 -0.002896167 -0.060827333 -0.18791449
000050 07 15 4c 3e 03 97 fa bb 2d 0f 0b 3e d8 b8 85 3d
       0.19929896 -0.0076473965 0.13580008 0.06529397
000060 fc ee 11 3e 47 fb cc 3e 57 f2 a1 3d ea 50 76 3e
       0.14251322 0.4003546 0.07907551 0.24054304
000070 4f bf ba 3d 89 29 b9 3d 02 bf 40 3e 67 10 24 be
       0.091185205 0.09041125 0.18822864 -0.16021882
000080 8c af 28 bf ae a7 83 be b3 a6 85 be 6b 35 b1 3d
       -0.65892863 -0.25713867 -0.26103744 0.08652767
000090 07 9c 8b 3d dc 4b 4d 3e 9d e5 7c 3e 4f fb ee bd
       0.06816869 0.2004847 0.24696966 -0.11669027
0000a0 31 25 51 bc 58 9e da bd 87 a2 6f 3d fc e6 9f bd
       -0.012765215 -0.10674733 0.058504608 -0.07807729
0000b0 78 36 8d be ce c8 fd 3d 91 cb 24 3e de 77 ab bc
       -0.2758062 0.12391816 0.1609328 -0.02093118
0000c0 39 32 9a 3e fd a6 a6 3d 0e a6 20 3e 34 86 56 be
       0.30116442 0.08137319 0.15688345 -0.20949632
0000d0 e3 6a 42 3e 35 cb 66 3e ae 50 d2 3c fd 4a 64 3e
       0.18986087 0.22538455 0.025673237 0.22294231
0000e0 18 8c 21 bd 5e 69 97 bc bf 4f 23 be 23 e9 85 be
       -0.039440244 -0.01848286 -0.1594839 -0.26154432
0000f0 a5 d2 39 3d bf 99 00 3e 8a fe cd 3d 3e f8 8f 3d
       0.045366902 0.1255865 0.10058315 0.0702977
000100 80 92 bc 3e 75 ea d2 bd e4 ee 79 3d e0 52 c1 bd
       0.3683052 -0.102986254 0.06101884 -0.09439635
000110 5f b9 88 bd 30 c6 3c bd c5 e3 51 bd 20 8d bb 3d
       -0.06675982 -0.046087444 -0.05124261 0.09157777
000120 71 e3 39 be 69 4b 34 3e 9f 0a 51 bd 7e 49 ca be
       -0.18153168 0.17606892 -0.05103552 -0.39509195
000130 90 88 7f 3d 08 b7 03 be 0a c7 b7 3d dc b5 69 bf
       0.062386096 -0.1286279 0.089735106 -0.9129312
000140 a0 dd 38 be 09 50 66 3d 67 51 f6 bd ce 90 bb be
       -0.18053293 0.05622867 -0.12027245 -0.36633915
000150 a1 9b 96 be 20 0c 46 be ef 29 37 3e 9b 3c c8 be
       -0.2941561 -0.19340563 0.1788709 -0.39108738
000160 36 b6 fc 3c fd 4b 2a 3c 2e fa d2 be f5 f1 9e be
       0.030848604 0.010394094 -0.41206497 -0.31043974
000170 78 04 a0 bd 67 c8 4e be 32 32 6a bd f5 00 ac 3e
       -0.07813352 -0.20193635 -0.057176776 0.3359448
000180 ef 98 fd be 65 64 8a 3d bd e9 1c bd e8 ae 0e be
       -0.49530742 0.0675743 -0.038308848 -0.13933909
000190 64 c3 82 3e d9 d7 12 3d 17 e8 9f bd bc 88 20 bf
       0.25539696 0.03585038 -0.078079395 -0.6270864
0001a0 0f 10 a8 bd 53 56 ba 3c 2d b3 a4 3d 97 a8 ea be
       -0.08206188 0.02274624 0.080419876 -0.4583175
0001b0 11 e6 86 be 75 5d 26 be 87 f9 f6 3d 9b be 03 bf
       -0.26347402 -0.16246589 0.12059312 -0.51462716
0001c0 d7 e0 f6 bd 0c 46 c8 bc a0 54 3c be fd 4c 03 3c
       -0.120546035 -0.024447463 -0.18391657 0.008013961
0001d0 2d 26 bb be 32 e4 ec be f5 85 18 3d a1 32 af bd
       -0.36552563 -0.4626785 0.037237126 -0.085545786
0001e0 79 9b a0 be 1f 56 bf 3d 24 14 30 3d c6 65 83 3d
       -0.31368616 0.09342598 0.042987958 0.06415896
0001f0 a6 2e ca bd 44 11 38 3d 32 6c 11 be a0 36 b7 bc
       -0.09872179 0.04493834 -0.1420143 -0.022364914
000200 c6 71 d7 be 7f 8b 16 3e 8e ba da bd 13 95 a8 3d
       -0.4207899 0.14701651 -0.10680114 0.08231559
000210 1b d8 20 3e 6d 5f c5 bc 4c 74 cc 3d 6a 6e 25 be
       0.15707438 -0.024093354 0.09983119 -0.16155401
000220 96 45 2d be 39 bb 9e ba e9 71 42 be 8d ef 78 3e
       -0.16921076 -0.001211024 -0.18988766 0.24310131
000230 56 bf 10 3d c0 b1 04 bf 13 de 25 be 0d d0 26 be
       0.035338722 -0.51833725 -0.16197996 -0.16290303
000240 1d cf ad be 96 88 0e 3f 0e 59 d9 be 94 61 07 3e
       -0.33947077 0.55677164 -0.42450756 0.13220817
000250 9b d1 3f be a4 7e 29 3d dd a7 95 bd a8 4a f5 3d
       -0.18732302 0.04138054 -0.07307408 0.1197713
000260 29 16 52 be 19 46 0d 3f 40 cb a4 3e c1 08 ea 3d
       -0.20516266 0.55185086 0.32186317 0.11427451
000270 f0 c7 91 3d c3 de a2 3e 70 b2 f7 be dd f9 c6 be
       0.07118213 0.3181058 -0.48378325 -0.38862506
000280 02 05 85 be 94 82 8d bd 74 79 a7 bc f8 ee 36 3e
       -0.25980383 -0.069096714 -0.020443656 0.17864597
000290 31 dc 20 3d 0b 0e 43 3d e9 09 2d be ee 1b 7d be
       0.03927249 0.047620814 -0.16898312 -0.24717686
0002a0 16 77 0e bf 27 4c cf bc ee ad d4 be 3c 62 5b 3e
       -0.5565046 -0.025304867 -0.41538948 0.21424192
0002b0 9e 37 7e 3d 84 68 4c 3e ca 46 b7 3e 3f ac 57 3e
       0.06206476 0.19961745 0.35796195 0.210618
0002c0 08 3c f2 be 14 ed dd 3d 0d 0f 09 3e c3 a6 6d bd
       -0.47311425 0.10836235 0.13384648 -0.058020364
0002d0 b4 ae a3 3b 4e 53 57 3e 24 57 20 be ab 13 cc be
       0.0049951915 0.21027872 -0.15658242 -0.39858755
0002e0 55 e9 b6 bc 72 ab 70 be e8 32 1b 3e 70 bb b8 bd
       -0.022328058 -0.23502901 0.15156138 -0.09020126
0002f0 14 7b 39 3d 6d 5d 8f 3c 50 46 81 be 60 d7 71 be
       0.045283392 0.017500604 -0.25248957 -0.23617315
000300 46 d9 24 bd e9 b8 fc bd 85 fd ed bd 9f 86 86 bd
       -0.04024627 -0.12339956 -0.11620621 -0.06568646
000310 00 a3 c1 bd ae 08 2f 3e 01 19 93 bd 56 26 3b 3e
       -0.09454918 0.17093155 -0.071825035 0.18276343
000320 51 17 8b be 77 74 bb be c1 86 a0 bd 64 35 7c be
       -0.27166227 -0.36612293 -0.07838202 -0.24629742
000330 17 cd 0a 3d 54 00 75 bd 4b 6d bb bb 35 e7 29 3e
       0.033886995 -0.059814766 -0.005719816 0.16592105
000340 3b 7a 72 3d ab 6d 4b be 6d de 98 3d d3 04 10 be
       0.0591986 -0.19866054 0.07464299 -0.1406434
000350 04 87 20 3e 5d 4a aa 3d ff c1 46 3e e6 75 8d be
       0.15676504 0.08314965 0.19409941 -0.27629012
000360 d8 e0 bf 3b 27 5d 69 be 5f f6 15 3e b8 ee 80 3d
       0.005855661 -0.22789441 0.14644764 0.06295532
000370 e3 36 5e 3d 84 80 92 3e 10 fe 99 be aa 2a 1f 3e
       0.054251563 0.28613675 -0.30076647 0.15543619
000380 f8 9a 5a be 6a 90 f7 3d d3 67 0a 3e 3b c4 0d 3e
       -0.21348178 0.12088092 0.13516168 0.13844387
000390 df a3 64 be 6c f1 7a 3c 83 e3 93 be c4 cb 60 3e
       -0.22328137 0.0153163485 -0.28884515 0.2195273
0003a0 14 1b f0 be 0a a4 98 be 2a b4 71 3e bb 8c 4b be
       -0.4689566 -0.29812652 0.23603883 -0.19877903
0003b0 e9 c4 e0 bc 86 61 1d 3e 3f 4d e0 be 50 59 f3 3d
       -0.027437644 0.15369233 -0.43808934 0.118822694
0003c0 06 4f 73 be 5d 09 1d be 52 0a 87 bd 9f e7 11 3e
       -0.23760614 -0.15335603 -0.06593765 0.14248513
0003d0 40 12 d9 bd 55 e3 f1 3d 50 89 5e bd 07 da 07 3e
       -0.10599184 0.11810938 -0.05433017 0.13266765
0003e0 13 13 95 be 84 20 9b 3e c3 5f d8 bc cb f0 ed bd
       -0.29116115 0.30298245 -0.02641285 -0.11618193
0003f0 17 64 2e 3c a0 00 22 be 78 4a 23 3d 8d 73 d6 bd
       0.0106439805 -0.15820551 0.03986594 -0.10471258

conv3_2/Conv2D_bias f4 [8]
000000 b6 4c 99 be 92 b2 13 40 b8 50 e9 3e 95 f3 e9 3e
       -0.29941338 2.307774 0.45569396 0.4569365
000010 e0 f8 53 be 51 4c 86 3f ac 01 c5 3f df d6 5b bf
       -0.20700407 1.049204 1.5391135 -0.8587474

conv3_2/kernel f4 [8, 3, 3, 8]
000000 fd 37 83 3c df 46 eb bb 4c 27 a0 bd 88 74 38 bc
       0.016017908 -0.0071800794 -0.07819995 -0.011258252
000010 6a 85 82 3d 7f 66 d4 bc 44 f8 da 3c f4 74 08 be
       0.06373103 -0.02592778 0.02672971 -0.13325864
000020 b8 bc 61 3d 8e 43 41 be 55 6b 84 bd 5b a7 91 3d
       0.055111617 -0.18873426 -0.064657845 0.07111999
000030 2e 9c 80 3d 88 fa 87 bc ad 40 c4 3c d6 97 d3 bd
       0.06279789 -0.016598955 0.023956621 -0.10331695
000040 7b 47 ac bd 1f fa 1b 3d 51 bf 85 be fc 38 d5 bc
       -0.08412071 0.03808033 -0.26122525 -0.026028149
000050 c8 d7 be 3d cf a9 43 bd d9 d8 49 3c 2a 57 98 3d
       0.09318501 -0.047769364 0.012319767 0.074385
000060 e9 5c e9 3c 1c 9e 23 be 25 62 88 bc 5a f0 61 bc
       0.028486686 -0.15978283 -0.016648361 -0.013790214
000070 a0 ad 36 3e ad 24 dc bc 40 80 19 bd 51 0d 33 bc
       0.1783967 -0.026872957 -0.037475824 -0.010928468
000080 96 3e 8c 3b 68 ab 24 3e 9d 7e a0 bc 84 33 82 bd
       0.0042799218 0.16081011 -0.019591624 -0.06357482
000090 9b 5b 99 be 4d 7f 87 bd cf 53 7f 3c 6f 79 c2 3c
       -0.29952702 -0.066160776 0.015583946 0.023739545
0000a0 c7 65 80 bc 3e f6 ac bc ad 7e e7 3d 1a 11 f5 bc
       -0.015673531 -0.021113511 0.11303458 -0.029915381
0000b0 8a 5b 62 bc 25 bf 24 3d 2f 7e f2 bc 44 9b 5c 3d
       -0.01381577 0.040221352 -0.029601185 0.05385901
0000c0 5c 83 53 3c e2 59 bf 3d 5e 0c 8c 3d b8 3d f2 bc
       0.0129097365 0.09343316 0.06838296 -0.029570445
0000d0 b3 dd 61 bd 65 03 86 bd 64 c4 8a 3c 07 7c e4 3d
       -0.05514307 -0.06543616 0.01693935 0.11156469
0000e0 5b 54 10 bd af e0 bf bc 99 7e b2 3d 0e 51 8f bc
       -0.035236698 -0.023422567 0.08715553 -0.017494705
0000f0 91 5a 6d be d3 58 c2 3c 24 cb 29 bc ad 91 85 3d
       -0.2317908 0.023723995 -0.010363374 0.06521926
000100 35 17 87 3b 39 a2 f8 bd f8 82 09 be f1 f2 fe ba
       0.0041226395 -0.121403165 -0.13428867 -0.0019451064
000110 28 f6 a4 bd 00 88 59 bc c5 a6 d8 bd 5d 38 96 bd
       -0.08054763 -0.013277054 -0.10578684 -0.07334969
000120 d5 e6 02 bd 81 3e 0b 3e d6 71 dc bd 97 72 e1 3d
       -0.03195842 0.13598062 -0.107639 0.110081844
000130 ff 51 4a 3e 59 7c d2 3d 74 c3 a9 bc 69 56 ef 3c
       0.19757842 0.10277624 -0.020723082 0.029216008
000140 2f 7a 91 3d 02 2b 95 3d c7 2f 3e bc fd aa 1d 3d
       0.07103383 0.07283594 -0.011608071 0.038493145
000150 a5 2e 52 be 9a 9f 7b 3c c6 1e 75 bd 4a 88 1f be
       -0.20525606 0.015357876 -0.0598438 -0.15579334
000160 c7 bb 41 bc c5 a6 88 be d6 fd ce bd d5 cb 17 3d
       -0.011824555 -0.26689735 -0.10107009 0.037059624
000170 51 2f 84 bd c1 97 ad 3d 4a cb 5b bd 9e 71 9a 3b
       -0.064543374 0.084762104 -0.05366067 0.0047132513
000180 83 2b 4b bd 93 0c 00 bf c0 31 c9 bd 48 e8 8c 3d
       -0.049602043 -0.50019187 -0.09823942 0.06880242
000190 81 b7 ed be d3 c0 2a 3d 26 25 d0 3c 48 4d 86 be
       -0.46429065 0.041687798 0.025408339 -0.26230836
0001a0 1f 55 df bd 67 f9 93 be 3a f8 c4 3a cd a4 d3 3c
       -0.109049074 -0.28901216 0.001502759 0.02583542
0001b0 ed 2b 96 be 25 28 18 3c c0 11 11 bb 65 cc ae bd
       -0.29330388 0.009286915 -0.0022135824 -0.08535079
0001c0 50 12 fd bc 20 8d 33 3e 2c 37 13 be 93 4e 02 3d
       -0.030892521 0.17534304 -0.14376515 0.031813215
0001d0 e5 6e e4 3c b2 51 38 3d 4e bc 36 bb ff d1 b2 bd
       0.02788491 0.044999786 -0.0027883234 -0.0873146
0001e0 58 28 83 bc 33 7c d6 be 12 65 ef 3c a6 b7 01 bc
       -0.016010448 -0.4189163 0.029222999 -0.00791732
0001f0 4d 15 5f be 18 fd 6e 3d a8 c3 8e 3d fb 8d eb bd
       -0.2178547 0.058346838 0.06970912 -0.1150169
000200 f0 23 52 bc 04 32 eb 3d 59 35 02 be c1 28 b5 bb
       -0.012825951 0.11484149 -0.12715663 -0.00552854
000210 ac 4c 24 be 95 56 3f 3d f0 ce 23 3d e8 b6 0f be
       -0.16044873 0.04671343 0.039992273 -0.14034617
000220 27 68 a5 3d 03 cd 25 3e 30 0d 5e bd 87 34 59 3d
       0.08076506 0.16191487 -0.054211795 0.05302861
000230 08 27 f1 bd 34 66 52 3d 2e 66 52 3b 95 f5 95 3d
       -0.11775023 0.051367 0.003210436 0.07322232
000240 79 5f 17 3c 3f e1 40 be da 26 92 bc aa 65 4a bd
       0.009239071 -0.18835925 -0.017840791 -0.04941336
000250 84 12 f1 3d 06 31 95 bc 41 88 a3 bd 1f 33 47 bc
       0.1177111 -0.018211853 -0.07984973 -0.012158184
000260 2e 1c 14 3d 99 19 89 bb 86 cd 65 3e e1 b3 b6 bd
       0.036159687 -0.0041839597 0.22441682 -0.08921028
000270 30 4f 47 3c 2d 86 38 bd 6f 02 43 bd ee 01 2f 3c
       0.012164876 -0.045049835 -0.047609743 0.010681612
000280 22 9f 45 3c 25 1f 13 3e f9 e9 d7 bc 0e 1e 50 bd
       0.012061866 0.1436735 -0.026356684 -0.050809912
000290 1b 9e 29 3d ab ad 77 bc 36 e6 98 3c b9 1c 72 bd
       0.041410547 -0.015117089 0.01866446 -0.059109423
0002a0 9e 17 92 3d b0 e2 be bd 54 38 97 bd c2 07 ed 3c
       0.07133411 -0.09320581 -0.073837906 0.028934363
0002b0 93 9a 9e bd bd 7d 06 3d a0 8b 09 be f1 53 5b 3e
       -0.077443264 0.032834757 -0.13432169 0.2141874
0002c0 a5 05 1e 3e 88 d7 fd bd 88 c2 e4 bd 55 13 ae bd
       0.1543184 -0.12394625 -0.111699164 -0.08499781
0002d0 9d ac 2a bd 7c 49 22 3c 71 cf ac bd e8 c0 b5 bd
       -0.041668523 0.009905215 -0.08438004 -0.088746846
0002e0 69 38 63 3e 71 98 8b be a0 3e 3f 3e 64 3a 55 3c
       0.22189488 -0.2726474 0.18676233 0.01301441
0002f0 54 10 6b bc f5 30 a5 bd b0 a0 74 3d e9 40 45 bd
       -0.014347155 -0.080659784 0.059723556 -0.048157606
000300 ed e2 68 be 91 1c f6 3d bb 0a 3b be 3f 69 93 3d
       -0.22742815 0.12017167 -0.18265812 0.071978085
000310 6a 68 49 be 50 d4 90 3d 16 f9 8e bd 27 b9 2c 3d
       -0.19668737 0.070717454 -0.06981103 0.042168763
000320 e3 7b bc bd 62 1a 92 be b7 54 64 be 77 54 da bc
       -0.09203317 -0.28535753 -0.22297941 -0.026651604
000330 14 62 21 be 0e 33 69 bb 7b 71 fc bd 00 52 a2 3b
       -0.1576007 -0.003558341 -0.12326332 0.004953623
000340 11 17 1f 3e fa ef be be 99 0f 9d be 64 c5 69 3c
       0.15536143 -0.37292463 -0.30675963 0.014268253
000350 83 a6 96 be 64 5c 57 3c 2b 6b 89 bd f7 26 91 bd
       -0.29423913 0.013144586 -0.06709894 -0.0708751
000360 6d 4c f6 bb 8c bf 61 3e 16 2b db bd 58 df f8 3c
       -0.007516435 0.22045726 -0.10701577 0.030379936
000370 9b c4 06 bf 95 ce 4a 3c c0 ff 8b bd 42 d7 c3 3d
       -0.52643746 0.012378355 -0.0683589 0.095625415
000380 42 60 5f bd 7b e7 8a 3e 2a 1a 59 bd 91 e1 36 3e
       -0.054535158 0.2712973 -0.053003468 0.17859484
000390 ea 49 92 be 9e 5d d6 3c 6b 44 88 bd 34 49 80 3c
       -0.28572017 0.026167687 -0.06653675 0.015659906
0003a0 4d 0e dc bc 25 41 02 3e 46 b4 11 3c 9e 53 62 3d
       -0.026862288 0.12720163 0.008893078 0.055255525
0003b0 45 e8 1c 3c 65 2e 31 bd 37 7b 09 bc 77 40 cd bd
       0.009576862 -0.043257136 -0.008391193 -0.10022061
0003c0 4d 2f 9c bd 7a 31 a5 be 00 8e 82 be aa b7 c0 3b
       -0.076262094 -0.3226431 -0.25498962 0.0058812695
0003d0 77 ca 68 be 37 1e 8f 3d 94 40 99 bd 53 de 23 3d
       -0.22733484 0.06988185 -0.074830204 0.040006947
0003e0 a0 24 15 bc 0c 8e de bc ce 2d 0d be a4 c3 de 3d
       -0.00910297 -0.027167343 -0.13787004 0.10877159
0003f0 08 6a 3b be 35 c5 d5 bc 33 af 7e bd c9 f6 2f be
       -0.18302166 -0.026095012 -0.0621788 -0.17183985

conv3_3/Conv2D_bias f4 [16]
000000 52 0c 5a be 43 58 b9 bd 42 97 87 bf b8 ea ff 3b
       -0.21293762 -0.09050038 -1.0593035 0.007809963
000010 68 39 a4 be b5 23 35 3f 0a 49 c4 3e 42 34 c9 3e
       -0.32075047 0.7075761 0.38336974 0.39297682
000020 aa 07 69 bf 86 21 34 be c6 ea ac 3d 7b 67 08 be
       -0.9102732 -0.17590913 0.08443217 -0.13320725
000030 ab 04 be bf b6 a4 a1 3d 54 4b 48 3e 5f c5 38 3e
       -1.4845175 0.07892744 0.19559985 0.18044041

conv3_3/kernel i1 [16, 3, 3, 8] scale=0.0071199113 zero_point=0
000000 ff 0a 1d de f5 22 09 01 05 34 15 c2 ff e6 27 23
       -0.0071199113 0.07119911 0.20647743 -0.24207698 -0.07831902 0.24207698 0.0640792 0.0071199113 0.035599556 0.37023538 0.14951813 -0.4414345 -0.0071199113 -0.18511769 0.27767655 0.24919689
000010 06 10 ef f4 f1 db fc fc 0d 1c 06 fe fc 17 ff 17
       0.04271947 0.11391858 -0.12103849 -0.08543894 -0.10679867 -0.2634367 -0.028479645 -0.028479645 0.092558846 0.19935751 0.04271947 -0.0142398225 -0.028479645 0.16375796 -0.0071199113 0.16375796
000020 e7 08 13 e4 ff f7 e5 fa f9 04 f2 16 15 e0 e0 e4
       -0.17799778 0.05695929 0.13527831 -0.19935751 -0.0071199113 -0.0640792 -0.1922376 -0.04271947 -0.049839377 0.028479645 -0.099678755 0.15663804 0.14951813 -0.22783716 -0.22783716 -0.19935751
000030 fa f4 fb 1b 0b db 0a 20 02 e7 e3 18 ef f8 fe cb
       -0.04271947 -0.08543894 -0.035599556 0.1922376 0.07831902 -0.2634367 0.07119911 0.22783716 0.0142398225 -0.17799778 -0.20647743 0.17087787 -0.12103849 -0.05695929 -0.0142398225 -0.3773553
000040 07 da f0 4a fa d5 f4 dd 0b 06 fa fd ee 0c 1f 05
       0.049839377 -0.27055663 -0.11391858 0.5268734 -0.04271947 -0.3061562 -0.08543894 -0.24919689 0.07831902 0.04271947 -0.04271947 -0.021359734 -0.1281584 0.08543894 0.22071725 0.035599556
000050 0f f5 f3 ef d5 06 0a fe f0 bf ee 07 e7 9a c0 e3
       0.10679867 -0.07831902 -0.092558846 -0.12103849 -0.3061562 0.04271947 0.07119911 -0.0142398225 -0.11391858 -0.46279424 -0.1281584 0.049839377 -0.17799778 -0.7262309 -0.45567432 -0.20647743
000060 fe 27 12 dd 14 0d 16 22 0f 06 02 dd 0a 11 0c fc
       -0.0142398225 0.27767655 0.1281584 -0.24919689 0.14239822 0.092558846 0.15663804 0.24207698 0.10679867 0.04271947 0.0142398225 -0.24919689 0.07119911 0.12103849 0.08543894 -0.028479645
000070 fd c1 eb 45 04 de c8 02 f9 2a 27 fa 04 1b 2c dd
       -0.021359734 -0.4485544 -0.14951813 0.49127388 0.028479645 -0.24207698 -0.39871502 0.0142398225 -0.049839377 0.29903626 0.27767655 -0.04271947 0.028479645 0.1922376 0.31327608 -0.24919689
000080 f2 24 03 04 26 3b 2a 2d 04 e2 ff 2a 02 e0 f3 14
       -0.099678755 0.2563168 0.021359734 0.028479645 0.27055663 0.42007476 0.29903626 0.320396 0.028479645 -0.21359734 -0.0071199113 0.29903626 0.0142398225 -0.22783716 -0.092558846 0.14239822
000090 04 13 06 da 00 08 1c fd fb 34 0d ec 0e fc 55 35
       0.028479645 0.13527831 0.04271947 -0.27055663 0.0 0.05695929 0.19935751 -0.021359734 -0.035599556 0.37023538 0.092558846 -0.14239822 0.099678755 -0.028479645 0.6051925 0.3773553
0000a0 09 35 f1 f4 f4 15 fd fb f1 e3 fa 01 f0 0c ea ca
       0.0640792 0.3773553 -0.10679867 -0.08543894 -0.08543894 0.14951813 -0.021359734 -0.035599556 -0.10679867 -0.20647743 -0.04271947 0.0071199113 -0.11391858 0.08543894 -0.15663804 -0.3844752
0000b0 fd f8 04 18 05 e8 31 04 ef 0d f7 0d 05 fa fc ff
       -0.021359734 -0.05695929 0.028479645 0.17087787 0.035599556 -0.17087787 0.34887564 0.028479645 -0.12103849 0.092558846 -0.0640792 0.092558846 0.035599556 -0.04271947 -0.028479645 -0.0071199113
0000c0 fd f5 f6 0d fd 1f d7 de 0e 00 08 fa f4 00 f1 f1
       -0.021359734 -0.07831902 -0.07119911 0.092558846 -0.021359734 0.22071725 -0.29191637 -0.24207698 0.099678755 0.0 0.05695929 -0.04271947 -0.08543894 0.0 -0.10679867 -0.10679867
0000d0 0c f9 fa 01 0e f9 f0 f2 0e 56 44 c7 07 37 55 11
       0.08543894 -0.049839377 -0.04271947 0.0071199113 0.099678755 -0.049839377 -0.11391858 -0.099678755 0.099678755 0.6123124 0.48415396 -0.40583494 0.049839377 0.39159513 0.6051925 0.12103849
0000e0 0d 19 29 ef 1e 26 04 01 fa 03 f6 ff fa df 00 03
       0.092558846 0.17799778 0.29191637 -0.12103849 0.21359734 0.27055663 0.028479645 0.0071199113 -0.04271947 0.021359734 -0.07119911 -0.0071199113 -0.04271947 -0.23495707 0.0 0.021359734
0000f0 04 26 f3 f8 0b 15 1d 11 f2 09 fa ff e5 01 ee cb
       0.028479645 0.27055663 -0.092558846 -0.05695929 0.07831902 0.14951813 0.20647743 0.12103849 -0.099678755 0.0640792 -0.04271947 -0.0071199113 -0.1922376 0.0071199113 -0.1281584 -0.3773553

conv4_1/Conv2D_bias f4 [16]
000000 3b 9b c4 bd 9a 7d 24 3e 03 81 4d be 19 67 fd 3c
       -0.0959992 0.16063538 -0.20068745 0.03093295
000010 80 2b b9 bd 47 b9 36 be 76 ce 5b be 84 4f e2 be
       -0.090415 -0.17844115 -0.21465477 -0.4420129
000020 58 96 42 be 11 6c 9e bd 5e cf 12 bd 83 48 2b 3e
       -0.19002664 -0.07735456 -0.035842292 0.1672688
000030 1a 5c cf be f3 00 a7 3d 87 b6 fe bd df 2c 8c 3d
       -0.40499955 0.08154478 -0.12437158 0.06844496

conv4_1/kernel i1 [16, 3, 3, 16] scale=0.0068857414 zero_point=0
000000 f3 e0 14 05 92 2b 0e 01 24 01 15 01 09 2c ea 00
       -0.089514636 -0.22034372 0.13771483 0.03442871 -0.75743157 0.29608688 0.09640038 0.0068857414 0.24788669 0.0068857414 0.14460057 0.0068857414 0.061971672 0.3029726 -0.1514863 0.0
000010 45 2f 15 b0 d0 1a 2d cd 23 03 f1 fd db 13 f9 95
       0.47511616 0.32362986 0.14460057 -0.55085933 -0.3305156 0.17902927 0.30985835 -0.3511728 0.24100095 0.020657225 -0.10328612 -0.020657225 -0.25477242 0.13082908 -0.04820019 -0.7367743
000020 67 57 11 8b 18 0b 05 c6 14 14 f7 e7 1f df ab d0
       0.7092314 0.5990595 0.11705761 -0.80563176 0.1652578 0.07574315 0.03442871 -0.399373 0.13771483 0.13771483 -0.061971672 -0.17214353 0.21345799 -0.22722946 -0.585288 -0.3305156
000030 e7 f9 36 bf 1d ec c8 0c fb 2f f1 1b 1d 02 32 49
       -0.17214353 -0.04820019 0.37183005 -0.44757318 0.1996865 -0.13771483 -0.38560152 0.0826289 -0.03442871 0.32362986 -0.10328612 0.18591502 0.1996865 0.013771483 0.34428707 0.50265914
000040 d6 19 c7 ae 00 f7 17 33 0a fb 19 d6 d1 0f 11 f9
       -0.28920114 0.17214353 -0.39248726 -0.5646308 0.0 -0.061971672 0.15837204 0.3511728 0.06885742 -0.03442871 0.17214353 -0.28920114 -0.32362986 0.10328612 0.11705761 -0.04820019
000050 ce 2a 23 e7 0a 14 e2 f8 df 07 f0 ee 12 f1 d4 f1
       -0.34428707 0.28920114 0.24100095 -0.17214353 0.06885742 0.13771483 -0.20657223 -0.05508593 -0.22722946 0.04820019 -0.11017186 -0.123943344 0.123943344 -0.10328612 -0.3029726 -0.10328612
000060 03 11 d4 c8 15 e6 2c d5 f3 00 07 ff f8 37 b3 13
       0.020657225 0.11705761 -0.3029726 -0.38560152 0.14460057 -0.17902927 0.3029726 -0.29608688 -0.089514636 0.0 0.04820019 -0.0068857414 -0.05508593 0.37871578 -0.5302021 0.13082908
000070 f9 f6 db 0b 1b cf 0f cd 02 fc 01 1a e0 1a 89 b2
       -0.04820019 -0.06885742 -0.25477242 0.07574315 0.18591502 -0.33740133 0.10328612 -0.3511728 0.013771483 -0.027542965 0.0068857414 0.17902927 -0.22034372 0.17902927 -0.81940323 -0.5370878
000080 ea fd e6 07 14 00 df f2 d9 ee 15 1a 01 fd 00 16
       -0.1514863 -0.020657225 -0.17902927 0.04820019 0.13771483 0.0 -0.22722946 -0.09640038 -0.2685439 -0.123943344 0.14460057 0.17902927 0.0068857414 -0.020657225 0.0 0.1514863
000090 12 eb 12 fb f0 16 0e 23 00 f5 01 f6 24 fb de e6
       0.123943344 -0.14460057 0.123943344 -0.03442871 -0.11017186 0.1514863 0.09640038 0.24100095 0.0 -0.07574315 0.0068857414 -0.06885742 0.24788669 -0.03442871 -0.23411521 -0.17902927
0000a0 d9 e5 08 01 08 27 0c 12 0e fc fd ee 19 f0 09 d1
       -0.2685439 -0.18591502 0.05508593 0.0068857414 0.05508593 0.2685439 0.0826289 0.123943344 0.09640038 -0.027542965 -0.020657225 -0.123943344 0.17214353 -0.11017186 0.061971672 -0.32362986
0000b0 1e f5 fc 01 09 05 f1 fd fb 02 07 f0 0b f0 1f 09
       0.20657223 -0.07574315 -0.027542965 0.0068857414 0.061971672 0.03442871 -0.10328612 -0.020657225 -0.03442871 0.013771483 0.04820019 -0.11017186 0.07574315 -0.11017186 0.21345799 0.061971672
0000c0 b7 f2 3b fd e8 d5 ea 10 ea 20 13 07 e6 fe 3d fd
       -0.50265914 -0.09640038 0.40625873 -0.020657225 -0.1652578 -0.29608688 -0.1514863 0.11017186 -0.1514863 0.22034372 0.13082908 0.04820019 -0.17902927 -0.013771483 0.42003024 -0.020657225
0000d0 ee e9 2d 00 f9 f4 f0 23 fd 1c e1 12 fb 02 2f 2c
       -0.123943344 -0.15837204 0.30985835 0.0 -0.04820019 -0.0826289 -0.11017186 0.24100095 -0.020657225 0.19280076 -0.21345799 0.123943344 -0.03442871 0.013771483 0.32362986 0.3029726
0000e0 f1 07 0c 00 fb 0a dc fa e5 fe 0a fd ef 03 f1 f4
       -0.10328612 0.04820019 0.0826289 0.0 -0.03442871 0.06885742 -0.24788669 -0.04131445 -0.18591502 -0.013771483 0.06885742 -0.020657225 -0.11705761 0.020657225 -0.10328612 -0.0826289
0000f0 13 f7 b4 fa fd ec 0b c7 1e f1 02 00 f8 13 dd 03
       0.13082908 -0.061971672 -0.5233163 -0.04131445 -0.020657225 -0.13771483 0.07574315 -0.39248726 0.20657223 -0.10328612 0.013771483 0.0 -0.05508593 0.13082908 -0.24100095 0.020657225

conv4_2/Conv2D_bias f4 [16]
000000 5e e4 43 be 45 92 1e bd 4c 2f 5a bd db 94 15 be
       -0.19130084 -0.038713712 -0.053267762 -0.14607565
000010 24 a8 4c 3d 10 b2 5c 3d 23 02 9e be 06 ce 7c be
       0.04996504 0.05388075 -0.30861005 -0.24687967
000020 ce 4b 1d 3d 8e cf 76 3e 54 49 32 be bc ac 54 be
       0.03840237 0.24102613 -0.17410785 -0.20769018
000030 7a a7 2f be 05 74 c5 bd 52 a8 ca bd 0d 39 66 3d
       -0.17153731 -0.096412696 -0.09895386 0.05620675

conv4_2/kernel i1 [16, 3, 3, 16] scale=0.009306916 zero_point=0
000000 ef f3 f7 06 01 11 fb f5 dd e7 03 ff e9 1a 0a f3
       -0.15821758 -0.12098991 -0.08376224 0.055841498 0.009306916 0.15821758 -0.04653458 -0.10237607 -0.32574207 -0.2326729 0.027920749 -0.009306916 -0.21405907 0.24197982 0.09306916 -0.12098991
000010 f8 fb 0e 0a f0 00 fc 08 f8 eb 10 f3 d8 e4 08 01
       -0.07445533 -0.04653458 0.13029683 0.09306916 -0.14891066 0.0 -0.037227664 0.07445533 -0.07445533 -0.19544524 0.14891066 -0.12098991 -0.37227663 -0.26059365 0.07445533 0.009306916
000020 07 e6 f8 08 12 e6 fd 06 1d d8 16 10 05 d1 0b 02
       0.06514841 -0.24197982 -0.07445533 0.07445533 0.16752449 -0.24197982 -0.027920749 0.055841498 0.26990056 -0.37227663 0.20475215 0.14891066 0.04653458 -0.43742505 0.10237607 0.018613832
000030 d9 08 eb 10 10 f6 11 f5 01 ea f2 03 f7 22 f9 e3
       -0.36296973 0.07445533 -0.19544524 0.14891066 0.14891066 -0.09306916 0.15821758 -0.10237607 0.009306916 -0.20475215 -0.13029683 0.027920749 -0.08376224 0.31643516 -0.06514841 -0.26990056
000040 20 fb 1a 07 02 06 e9 f6 10 f7 12 02 13 f7 ec 13
       0.2978213 -0.04653458 0.24197982 0.06514841 0.018613832 0.055841498 -0.21405907 -0.09306916 0.14891066 -0.08376224 0.16752449 0.018613832 0.17683141 -0.08376224 -0.18613832 0.17683141
000050 14 bf 12 1b b0 05 e9 08 42 f1 26 19 f9 d5 02 fc
       0.18613832 -0.60494953 0.16752449 0.25128675 -0.74455327 0.04653458 -0.21405907 0.07445533 0.61425644 -0.13960373 0.35366282 0.2326729 -0.06514841 -0.4001974 0.018613832 -0.037227664
000060 02 09 13 f1 0f 01 f7 0a fd fb 1a 02 fe 03 e5 fa
       0.018613832 0.08376224 0.17683141 -0.13960373 0.13960373 0.009306916 -0.08376224 0.09306916 -0.027920749 -0.04653458 0.24197982 0.018613832 -0.018613832 0.027920749 -0.25128675 -0.055841498
000070 19 fb 00 01 01 02 d5 0a 1c 0d 16 15 fb e6 f1 f6
       0.2326729 -0.04653458 0.0 0.009306916 0.009306916 0.018613832 -0.4001974 0.09306916 0.26059365 0.12098991 0.20475215 0.19544524 -0.04653458 -0.24197982 -0.13960373 -0.09306916
000080 ff d5 e5 0c 0a 03 da 10 1e 19 f2 f7 fd fe 17 05
       -0.009306916 -0.4001974 -0.25128675 0.111682996 0.09306916 0.027920749 -0.35366282 0.14891066 0.27920747 0.2326729 -0.13029683 -0.08376224 -0.027920749 -0.018613832 0.21405907 0.04653458
000090 17 fb e2 d9 03 05 ea f7 0d e1 da e6 13 f6 1c 02
       0.21405907 -0.04653458 -0.27920747 -0.36296973 0.027920749 0.04653458 -0.20475215 -0.08376224 0.12098991 -0.2885144 -0.35366282 -0.24197982 0.17683141 -0.09306916 0.26059365 0.018613832
0000a0 0c f4 fa f5 d9 f8 00 04 e5 ed f2 08 00 18 fe f6
       0.111682996 -0.111682996 -0.055841498 -0.10237607 -0.36296973 -0.07445533 0.0 0.037227664 -0.25128675 -0.17683141 -0.13029683 0.07445533 0.0 0.22336599 -0.018613832 -0.09306916
0000b0 f4 00 12 12 00 04 04 07 05 07 21 05 ef 0b f9 f4
       -0.111682996 0.0 0.16752449 0.16752449 0.0 0.037227664 0.037227664 0.06514841 0.04653458 0.06514841 0.30712822 0.04653458 -0.15821758 0.10237607 -0.06514841 -0.111682996
0000c0 0d f5 02 d7 05 f7 f7 e9 0d e2 f1 f6 1f 0a 1b 0a
       0.12098991 -0.10237607 0.018613832 -0.38158357 0.04653458 -0.08376224 -0.08376224 -0.21405907 0.12098991 -0.27920747 -0.13960373 -0.09306916 0.2885144 0.09306916 0.25128675 0.09306916
0000d0 f8 0f 0c f7 e2 1d f7 06 eb ea ff 01 ff 1a 06 ee
       -0.07445533 0.13960373 0.111682996 -0.08376224 -0.27920747 0.26990056 -0.08376224 0.055841498 -0.19544524 -0.20475215 -0.009306916 0.009306916 -0.009306916 0.24197982 0.055841498 -0.16752449
0000e0 02 09 fe 06 10 eb fd fe 0a 18 16 fd fd ee ec f3
       0.018613832 0.08376224 -0.018613832 0.055841498 0.14891066 -0.19544524 -0.027920749 -0.018613832 0.09306916 0.22336599 0.20475215 -0.027920749 -0.027920749 -0.16752449 -0.18613832 -0.12098991
0000f0 21 ef 14 f6 e8 fc 01 fb 12 f2 09 eb fa 01 0c f3
       0.30712822 -0.15821758 0.18613832 -0.09306916 -0.22336599 -0.037227664 0.009306916 -0.04653458 0.16752449 -0.13029683 0.08376224 -0.19544524 -0.055841498 0.009306916 0.111682996 -0.12098991

conv4_3/Conv2D_bias f4 [32]
000000 07 2d 5d 3c fa d6 ee 3d 7c c7 92 be ec 82 80 3d
       0.013499505 0.11662097 -0.2866782 0.06274971
000010 05 c8 38 3c 6a 90 18 be e5 79 c4 3e bc 20 dc bc
       0.011278157 -0.1489884 0.38374248 -0.026871078
000020 9f fc 09 3d 08 4d fa 3d ce a9 4d be 02 b3 1c 39
       0.033688184 0.12221724 -0.20084307 0.00014944005
000030 06 6c 31 be 9e 0e a1 be 64 91 8b bd 1a 5d ec 3d
       -0.17326364 -0.31456465 -0.068148404 0.11541195
000040 94 26 1e 3e 46 73 1b bb 74 3a 33 be 18 8f 84 3e
       0.15444404 -0.0023719831 -0.17502767 0.25890422
000050 c0 6d 2a 3c 1c a3 08 bf f7 7c 0a 3e 22 01 b5 bd
       0.010402143 -0.53373885 0.13524233 -0.08838107
000060 18 09 c7 36 88 2a 48 3b b5 6e df be 15 cb 95 bc
       5.931721e-06 0.0030542929 -0.4363915 -0.018285314
000070 c3 6d ad 3c 63 44 17 3e b6 ed 0e 3e 03 94 3e 3d
       0.021170503 0.14772181 0.13957867 0.046527874

conv4_3/kernel i1 [32, 3, 3, 16] scale=0.006871072 zero_point=0
000000 01 f7 08 f3 c8 17 02 1a c0 00 fe 07 e6 05 ff e1
       0.006871072 -0.061839648 0.054968577 -0.08932394 -0.38478005 0.15803465 0.013742144 0.17864788 -0.43974862 0.0 -0.013742144 0.048097506 -0.17864788 0.03435536 -0.006871072 -0.21300323
000010 f9 fe 0b e5 de 12 08 e7 b7 fa ff fd ee 0c ff e0
       -0.048097506 -0.013742144 0.0755818 -0.18551895 -0.23361646 0.123679295 0.054968577 -0.1717768 -0.5015883 -0.04122643 -0.006871072 -0.020613216 -0.123679295 0.08245286 -0.006871072 -0.21987431
000020 02 f7 f7 01 ef 10 fb d8 d0 05 ea eb 0b fb f2 f3
       0.013742144 -0.061839648 -0.061839648 0.006871072 -0.11680823 0.109937154 -0.03435536 -0.2748429 -0.32981145 0.03435536 -0.1511636 -0.14429252 0.0755818 -0.03435536 -0.09619501 -0.08932394
000030 0b f5 05 e7 f5 ee fc e1 ca f2 07 de fd fa f7 d3
       0.0755818 -0.0755818 0.03435536 -0.1717768 -0.0755818 -0.123679295 -0.027484288 -0.21300323 -0.3710379 -0.09619501 0.048097506 -0.23361646 -0.020613216 -0.04122643 -0.061839648 -0.30919823
000040 f6 f3 e4 0a e7 ff 22 08 bb f8 f6 f9 f9 fa 18 ee
       -0.06871072 -0.08932394 -0.19239002 0.06871072 -0.1717768 -0.006871072 0.23361646 0.054968577 -0.474104 -0.054968577 -0.06871072 -0.048097506 -0.048097506 -0.04122643 0.16490573 -0.123679295
000050 eb 02 04 12 e4 ff 16 f3 d0 ed fd fa 1d 01 f7 06
       -0.14429252 0.013742144 0.027484288 0.123679295 -0.19239002 -0.006871072 0.1511636 -0.08932394 -0.32981145 -0.13055037 -0.020613216 -0.04122643 0.19926108 0.006871072 -0.061839648 0.04122643
000060 10 06 02 fc 02 e4 0e d0 df ec 05 02 f1 04 04 b3
       0.109937154 0.04122643 0.013742144 -0.027484288 0.013742144 -0.19239002 0.09619501 -0.32981145 -0.22674538 -0.13742144 0.03435536 0.013742144 -0.10306608 0.027484288 0.027484288 -0.5290725
000070 12 fb f4 10 03 dd f3 dc b2 f8 f8 0d eb 04 eb ee
       0.123679295 -0.03435536 -0.08245286 0.109937154 0.020613216 -0.24048753 -0.08932394 -0.24735859 -0.5359436 -0.054968577 -0.054968577 0.08932394 -0.14429252 0.027484288 -0.14429252 -0.123679295
000080 e4 04 fd 1d 0b da 0a f6 e1 f3 0d 06 fc 04 0a 0b
       -0.19239002 0.027484288 -0.020613216 0.19926108 0.0755818 -0.26110074 0.06871072 -0.06871072 -0.21300323 -0.08932394 0.08932394 0.04122643 -0.027484288 0.027484288 0.06871072 0.0755818
000090 cb 0b f0 fb d5 f9 e8 29 04 f9 07 69 10 f3 d8 38
       -0.36416683 0.0755818 -0.109937154 -0.03435536 -0.2954561 -0.048097506 -0.16490573 0.28171396 0.027484288 -0.048097506 0.048097506 0.72146255 0.109937154 -0.08932394 -0.2748429 0.38478005
0000a0 dd 0e f7 da d4 1b 19 53 fc 09 08 fb e8 02 f3 fe
       -0.24048753 0.09619501 -0.061839648 -0.26110074 -0.3023272 0.18551895 0.1717768 0.57029897 -0.027484288 0.061839648 0.054968577 -0.03435536 -0.16490573 0.013742144 -0.08932394 -0.013742144
0000b0 f9 0f 33 1b ef e0 31 f7 e7 13 28 e6 0d fb e6 d0
       -0.048097506 0.10306608 0.35042468 0.18551895 -0.11680823 -0.21987431 0.33668253 -0.061839648 -0.1717768 0.13055037 0.2748429 -0.17864788 0.08932394 -0.03435536 -0.17864788 -0.32981145
0000c0 08 d4 0e 08 e1 f4 03 1b fe 15 f0 2a 0f 03 c4 6e
       0.054968577 -0.3023272 0.09619501 0.054968577 -0.21300323 -0.08245286 0.020613216 0.18551895 -0.013742144 0.14429252 -0.109937154 0.28858504 0.10306608 0.020613216 -0.41226432 0.75581795
0000d0 01 ed 10 f7 05 14 17 0e 31 01 16 1e 0f 0e e6 f4
       0.006871072 -0.13055037 0.109937154 -0.061839648 0.03435536 0.13742144 0.15803465 0.09619501 0.33668253 0.006871072 0.1511636 0.20613216 0.10306608 0.09619501 -0.17864788 -0.08245286
0000e0 05 11 0c d7 e2 e5 f1 0c fe f8 20 f3 fe 43 ea b5
       0.03435536 0.11680823 0.08245286 -0.28171396 -0.20613216 -0.18551895 -0.10306608 0.08245286 -0.013742144 -0.054968577 0.21987431 -0.08932394 -0.013742144 0.46036184 -0.1511636 -0.51533043
0000f0 f5 02 fe e5 f3 f9 22 09 08 0e ef ee f6 f6 ea 2e
       -0.0755818 0.013742144 -0.013742144 -0.18551895 -0.08932394 -0.048097506 0.23361646 0.061839648 0.054968577 0.09619501 -0.11680823 -0.123679295 -0.06871072 -0.06871072 -0.1511636 0.3160693

conv4_3_norm_mbox_conf/Conv2D_bias f4 [4]
000000 0b bc a3 3f 11 bc a3 bf aa e9 b0 3f ad e9 b0 bf
       1.2791761 -1.2791768 1.3821309 -1.3821312

conv4_3_norm_mbox_conf/kernel i1 [4, 3, 3, 32] scale=0.010368315 zero_point=0
000000 cd fa 17 ff 08 f7 e7 31 e8 f9 05 1d cf 38 17 1b
       -0.52878404 -0.06220989 0.23847124 -0.010368315 0.08294652 -0.093314834 -0.25920787 0.5080474 -0.24883956 -0.0725782 0.051841572 0.3006811 -0.5080474 0.5806256 0.23847124 0.27994448
000010 fb ee 3d 04 10 4b 11 a4 f7 0f 49 27 f3 d5 02 d6
       -0.051841572 -0.18662967 0.6324672 0.04147326 0.16589303 0.7776236 0.17626135 -0.95388496 -0.093314834 0.15552472 0.75688696 0.40436426 -0.1347881 -0.44583753 0.02073663 -0.4354692
000020 fd d9 0b 1c 02 07 3a 1f ec 01 e6 08 d8 e0 12 2c
       -0.031104945 -0.40436426 0.11405146 0.2903128 0.02073663 0.0725782 0.6013622 0.32141775 -0.20736629 0.010368315 -0.2695762 0.08294652 -0.41473258 -0.33178607 0.18662967 0.45620584
000030 eb f9 3e 4c 03 45 06 8c 0f 22 22 07 23 fb 3b 06
       -0.2177346 -0.0725782 0.6428355 0.7879919 0.031104945 0.7154137 0.06220989 -1.2027245 0.15552472 0.3525227 0.3525227 0.0725782 0.36289102 -0.051841572 0.6117306 0.06220989
000040 0b e6 ff 09 06 48 2e de f2 f9 e1 f6 f5 0c 22 3d
       0.11405146 -0.2695762 -0.010368315 0.093314834 0.06220989 0.7465187 0.47694248 -0.3525227 -0.1451564 -0.0725782 -0.32141775 -0.103683144 -0.11405146 0.12441978 0.3525227 0.6324672
000050 e3 06 40 33 ea 40 e4 fa 14 17 3c f4 0f 03 df f6
       -0.3006811 0.06220989 0.66357213 0.52878404 -0.22810292 0.66357213 -0.2903128 -0.06220989 0.20736629 0.23847124 0.62209886 -0.12441978 0.15552472 0.031104945 -0.34215438 -0.103683144
000060 e5 25 3c ea 05 f7 c8 3a d9 24 33 3a cc 2c 25 16
       -0.27994448 0.38362765 0.62209886 -0.22810292 0.051841572 -0.093314834 -0.5806256 0.6013622 -0.40436426 0.37325934 0.52878404 0.6013622 -0.5391524 0.45620584 0.38362765 0.22810292
000070 16 f0 3c 3d 0f 32 22 bb f9 17 fe ef e4 01 2d da
       0.22810292 -0.16589303 0.62209886 0.6324672 0.15552472 0.51841575 0.3525227 -0.7154137 -0.0725782 0.23847124 -0.02073663 -0.17626135 -0.2903128 0.010368315 0.46657416 -0.39399594
000080 f7 14 38 11 dd fe 21 17 fb 3b ed 57 e9 e9 28 1f
       -0.093314834 0.20736629 0.5806256 0.17626135 -0.36289102 -0.02073663 0.34215438 0.23847124 -0.051841572 0.6117306 -0.19699797 0.90204334 -0.23847124 -0.23847124 0.41473258 0.32141775
000090 2a ee 57 0b f1 2b c8 a0 09 3a 30 c1 16 db 21 c8
       0.4354692 -0.18662967 0.90204334 0.11405146 -0.15552472 0.44583753 -0.5806256 -0.9953582 0.093314834 0.6013622 0.4976791 -0.65320385 0.22810292 -0.38362765 0.34215438 -0.5806256
0000a0 17 f3 2b 44 11 1e d2 fe 1e 11 c8 1a ea 1f 18 56
       0.23847124 -0.1347881 0.44583753 0.7050454 0.17626135 0.31104943 -0.47694248 -0.02073663 0.31104943 0.17626135 -0.5806256 0.2695762 -0.22810292 0.32141775 0.24883956 0.89167506
0000b0 14 ec 50 1e 00 12 f9 34 02 29 3e aa 37 10 02 23
       0.20736629 -0.20736629 0.82946515 0.31104943 0.0 0.18662967 -0.0725782 0.5391524 0.02073663 0.4251009 0.6428355 -0.89167506 0.5702573 0.16589303 0.02073663 0.36289102
0000c0 da 36 26 e9 09 54 c9 16 c0 11 1c 0a 07 e7 1f f8
       -0.39399594 0.55988896 0.39399594 -0.23847124 0.093314834 0.8709384 -0.5702573 0.22810292 -0.66357213 0.17626135 0.2903128 0.103683144 0.0725782 -0.25920787 0.32141775 -0.08294652
0000d0 ff fa 2a 03 0b 4c d6 0d 14 d5 46 be 0e 11 25 e3
       -0.010368315 -0.06220989 0.4354692 0.031104945 0.11405146 0.7879919 -0.4354692 0.1347881 0.20736629 -0.44583753 0.72578204 -0.68430877 0.1451564 0.17626135 0.38362765 -0.3006811
0000e0 d5 3c 32 fe 03 0d f0 3c c7 45 e8 14 ef ef 29 05
       -0.44583753 0.62209886 0.51841575 -0.02073663 0.031104945 0.1347881 -0.16589303 0.62209886 -0.59099394 0.7154137 -0.24883956 0.20736629 -0.17626135 -0.17626135 0.4251009 0.051841572
0000f0 1f fe 19 d5 12 21 36 22 16 f5 3f ab 01 1d 20 e8
       0.32141775 -0.02073663 0.25920787 -0.44583753 0.18662967 0.34215438 0.55988896 0.3525227 0.22810292 -0.11405146 0.65320385 -0.88130677 0.010368315 0.3006811 0.33178607 -0.24883956

conv4_3_norm_mbox_loc/Conv2D_bias f4 [8]
000000 66 4a b9 3d 38 30 c0 3d dd 3d 23 3e 57 a9 4f 3e
       0.090473935 0.09384197 0.15941568 0.20279442
000010 ae d3 2d bd 0f 6c 97 3e 23 0c 00 3f fe 91 e0 3e
       -0.0424382 0.2957463 0.5001852 0.43861383
